models/Mnist-alpha0.1-ratio0.5/server.pt (torch, 114031 bytes, 16 tensors)

weight f4 [6, 1, 3, 3]
0	0x3d90b8e1	0.07066513
1	0xbd4441fd	-0.047914494
2	0x3ddbcefd	0.10732839
3	0xbcce7f8a	-0.0252073
4	0x3e1c7c17	0.15281712
5	0x3dfe72f0	0.12424266
6	0xbda1e999	-0.07905883
7	0xbe8cb684	-0.27482998
8	0x3d8ca350	0.06867087
9	0xbe8f5b90	-0.27999544
10	0x3d5aa9cb	0.053384583
11	0x3d25a70e	0.04044252
12	0xbd411439	-0.047138426
13	0x3e8b196f	0.27167842
14	0x3c581d54	0.013190586
15	0x3e33c6e4	0.1755634
16	0x3e26d78e	0.16293165
17	0xbe43b07b	-0.1911029
18	0xbddd1792	-0.10795511
19	0x3ead4b9a	0.33846742
20	0xbe90f1c0	-0.2830944
21	0xbca13c48	-0.019682065
22	0x3c93ea56	0.018056076
23	0x3e8ad1de	0.2711324
24	0xbcfdadf0	-0.030966729
25	0x3e07f899	0.13278426
26	0x3cefc115	0.029266873
27	0xbe2f7eed	-0.17138262
28	0xbe4b2f71	-0.19842316
29	0xbe2b7857	-0.16745125
30	0xbe93d1d1	-0.28871015
31	0xbe6891b5	-0.22711833
32	0x3d962b62	0.07332493
33	0x3e66b91a	0.22531548
34	0x3a93a813	0.00112653
35	0xbe239112	-0.15973309
36	0x3df961ae	0.12176834
37	0xbdf26211	-0.11835111
38	0xbd8598ed	-0.06523309
39	0xbe68608c	-0.2269308
40	0xbde16d63	-0.11007192
41	0xbea59702	-0.32341772
42	0x3dbb26be	0.09138249
43	0x3e00ad82	0.12566188
44	0x3d3201c7	0.043458726
45	0x3e2b8e01	0.16753389
46	0x3e0b8b2d	0.1362731
47	0xbb21098e	-0.0024572345
48	0x3d43a164	0.047761336
49	0x3cffee75	0.031241635
50	0x3e327140	0.17426014
51	0x3e5ec3d6	0.21754393
52	0x3e74189a	0.2383751
53	0x3e502c4e	0.20329401

bias f4 [6]
0	0xbda670d6	-0.081269905
1	0xbc732057	-0.014839253
2	0xbd8abbc6	-0.06774096
3	0x3e469083	0.19391064
4	0x3d17a1a1	0.037019376
5	0x3e9df553	0.3085123

weight f4 [6]
0	0x3f803945	1.0017477
1	0x3f81d06b	1.0141729
2	0x3f7ffa68	0.99991465
3	0x3f797812	0.9744884
4	0x3f7bf630	0.9842253
5	0x3f8319c2	1.0242236

bias f4 [6]
0	0xbc4fa63b	-0.01267391
1	0x3bb8427f	0.0056231613
2	0x3bdf2801	0.0068101888
3	0xbd00366a	-0.031301893
4	0xbc889abc	-0.016675346
5	0x3c4113f9	0.011784547

running_mean f4 [6]
0	0x00000000	0.0
1	0x00000000	0.0
2	0x00000000	0.0
3	0x00000000	0.0
4	0x00000000	0.0
5	0x00000000	0.0

running_var f4 [6]
0	0x3f800000	1.0
1	0x3f800000	1.0
2	0x3f800000	1.0
3	0x3f800000	1.0
4	0x3f800000	1.0
5	0x3f800000	1.0

weight f4 [16, 6, 3, 3]
0	0x3dbee327	0.093206696
1	0xbdc2e8b6	-0.09517042
2	0x3d725215	0.05916031
3	0x3e14a258	0.14515054
4	0x3e0e81fd	0.13916774
5	0x3d315edd	0.04330336
6	0x3d1a7cbc	0.037716612
7	0xbdfc91b8	-0.12332481
8	0xbcdb9587	-0.026804699
9	0x3d95ba8f	0.07310974
10	0xbdc614b6	-0.09671919
11	0x3db77ea4	0.08959702
12	0xbda1f1e5	-0.07907466
13	0x3cba2a21	0.022725167
14	0xbc610084	-0.013733033
15	0x3b9ef68e	0.004851169
16	0xbca81a11	-0.020520242
17	0xbdf7d8d0	-0.121019006
18	0xb9a4f377	-0.00031461913
19	0xbd5bd102	-0.053666122
20	0x3e02e156	0.12781271
21	0xbb63d117	-0.0034762078
22	0xbdfd8b83	-0.123801254
23	0x3d4570e6	0.04820337
24	0x3d3fd9ad	0.04683845
25	0xbd9e2d4b	-0.07723483
26	0xbc77e49c	-0.015130188
27	0x3d86594e	0.06560002
28	0xbd945403	-0.072425865
29	0xbd71b70c	-0.059012458
30	0xbbca8a39	-0.006181028
31	0xbdb19ead	-0.08672843
32	0x3db872d3	0.09006276
33	0x3c8480b1	0.016174646
34	0x3dae52fd	0.085119225
35	0x3d950f83	0.07278349
36	0xbdc9c187	-0.098513655
37	0xbd98098d	-0.07423697
38	0xbd9b1d58	-0.07573956
39	0xbd248cf6	-0.040173493
40	0xbd2ee16d	-0.04269545
41	0xbc91f208	-0.017815605
42	0xbe03ce7a	-0.12871733
43	0x3d721b10	0.05910784
44	0x3d97f775	0.074202456
45	0x3d94d9fc	0.0726814
46	0x3dff32c4	0.12460855
47	0x3dfba865	0.12287978
48	0xbdfdb878	-0.123887
49	0x3ca093de	0.019601759
50	0x3e0a0bc6	0.13481054
51	0xbde9f5b1	-0.11423815
52	0xbdb3eee6	-0.08785801
53	0xbc41e068	-0.011833288
54	0xbdaef204	-0.085422546
55	0xbcec997c	-0.02888178
56	0xbc6fd7cc	-0.014638852
57	0x3df3dfb7	0.119079046
58	0xbc874c4c	-0.016515873
59	0x3d963234	0.07333794
60	0x3df2aea8	0.11849719
61	0x3d91f55d	0.071268775
62	0xbdebc31a	-0.11511822
63	0x3dca1f1e	0.098692164
64	0x3da42e49	0.08016641
65	0xbdd34521	-0.1031592
66	0xbd1e73e5	-0.038684744
67	0x3dc342dd	0.095342375
68	0xbdfe175f	-0.124068014
69	0xbdfae982	-0.12251569
70	0xbdc8d4d5	-0.098062195
71	0x3d300490	0.0429731
72	0xbd4a2941	-0.04935575
73	0xbe04bdd0	-0.12963033
74	0x3d5aa7cb	0.053382676
75	0x3dbaf298	0.09128302
76	0x3d662ddb	0.056196075
77	0xbde069bf	-0.109576695
78	0x3e0e9584	0.13924223
79	0xbb87023f	-0.004120141
80	0xbdff3d51	-0.12462867
81	0xbc9e6329	-0.019334393
82	0x3dc4e4f7	0.09613984
83	0x3d99b057	0.07504337
84	0xbb4d0c40	-0.003128782
85	0x3dcbb253	0.09946122
86	0xbdeaaa35	-0.11458246
87	0x3da23872	0.07920922
88	0x3dfb7714	0.12278572
89	0xbdada742	-0.084791675
90	0x3d1166ef	0.035498556
91	0xbc02d0e7	-0.0079843765
92	0xbde07de7	-0.10961514
93	0xb8cbd995	-9.720322e-05
94	0xbd1bd322	-0.03804315
95	0xbde7cab9	-0.11317963
96	0xbddc904d	-0.10769711
97	0x3b859e14	0.0040776823
98	0x3dff7b4e	0.124746904
99	0x3d64b619	0.055837724
100	0xbdca3ec0	-0.0987525
101	0x3dbff42f	0.09372746
102	0x3cfb443a	0.030672181
103	0xbdfebbed	-0.12438188
104	0x3c43a125	0.011940275
105	0x3db4fac8	0.08836895
106	0xbd981dba	-0.07427545
107	0xbb1598dc	-0.0022826707
108	0xbd816884	-0.06318763
109	0xbdc08e58	-0.0940215
110	0xbd599421	-0.053119782
111	0x3c46e97f	0.012140631
112	0x3dabf86f	0.08396994
113	0xbc2610bd	-0.010135827
114	0xbdd3e910	-0.103471875
115	0xbbb427e4	-0.0054979194
116	0xbdd3b965	-0.103380956
117	0x3b101388	0.0021984298
118	0x3de4cdee	0.111720905
119	0x3d8d62b5	0.069035925
120	0xbd75d963	-0.06002177
121	0xbba2a232	-0.004963183
122	0x3d7d6f27	0.06187358
123	0x3d4ba6e4	0.049719706
124	0xbe08d300	-0.1336174
125	0xbda9a04a	-0.08282526
126	0xbd700e64	-0.058607474
127	0x3d5fca88	0.05463651
128	0x3e0ed139	0.13947
129	0x3d8ed826	0.06974821
130	0x3d5912ea	0.052996553
131	0xbde1d0c3	-0.11026146
132	0x3dbca39a	0.09210892
133	0x3d2bb868	0.04192391
134	0xbd2a4026	-0.041565083
135	0xbd6c2baa	-0.05765883
136	0x3d14a26b	0.036287706
137	0xbdacb145	-0.08432249
138	0x3d5d36ca	0.05400733
139	0x3dd789b2	0.1052431
140	0xbdc42768	-0.09577829
141	0xbdb0d43d	-0.08634231
142	0xbd5ee891	-0.05442101
143	0xbdf3cb9f	-0.11904072
144	0xbc815973	-0.015789723
145	0x3d9cefde	0.076629385
146	0x3d3b4386	0.045718692
147	0xbd17a3e6	-0.03702154
148	0xbc666495	-0.014062067
149	0xbd7567fc	-0.05991362
150	0xbddd5f6d	-0.10809217
151	0xbd16270b	-0.036658328
152	0x3bd08cfa	0.006364462
153	0xbdae3824	-0.08506802
154	0xbdcf29d9	-0.10115404
155	0x3d7352bf	0.059405085
156	0x3cef5ee3	0.02922005
157	0xbd2a4025	-0.04156508
158	0x3d264bab	0.040599506
159	0x3e0a1618	0.1348499
160	0xbb78c560	-0.0037959442
161	0xbdcac1a4	-0.09900215
162	0x3e35aa64	0.1774078
163	0x3e0fd0a6	0.14044437
164	0x3c8d2ef1	0.017234297
165	0xbd601638	-0.05470869
166	0xbcd7b5b4	-0.02633176
167	0x3e1188f6	0.14212403
168	0x3d49a20c	0.049226806
169	0xbd62f033	-0.055404853
170	0x3cb4a042	0.022049073
171	0x3d6581da	0.05603204
172	0x3c908c0b	0.017644903
173	0xbcebca2d	-0.028782928
174	0xbdae9fae	-0.0852655
175	0xbd2767ef	-0.040870603
176	0xbcb2a788	-0.0218084
177	0xbd701db5	-0.05862208
178	0xbd681c53	-0.056667637
179	0xbd00211c	-0.031281576
180	0xbcff501a	-0.031166125
181	0x3d8c3de6	0.06847744
182	0xbdb934b8	-0.090432584
183	0xbe07e1d3	-0.13269739
184	0x3df15e41	0.11785556
185	0x3dba7d6c	0.091059536
186	0x3d8373e4	0.06418589
187	0x3d9722b2	0.073796645
188	0xbc996ede	-0.018729623
189	0xbda0713e	-0.07834099
190	0xbdb33809	-0.08750922
191	0xbbbe4736	-0.005806829
192	0x3d475840	0.048668146
193	0xbdec0d0c	-0.11525926
194	0xbdd11fec	-0.10211167
195	0x3dbc259d	0.09186862
196	0x3cd01f47	0.02540554
197	0x3da083ef	0.07837664
198	0x3df4252c	0.119211525
199	0x3da59dd8	0.08086747
200	0xbc399be2	-0.011328669
201	0xbd4b8286	-0.049685024
202	0x3d2942f4	0.041323617
203	0x3de69a7e	0.11259936
204	0xbdeb46ce	-0.11488114
205	0x3cffbc84	0.031217821
206	0xbde9ebcd	-0.114219286
207	0xbd974fc3	-0.0738826
208	0x3d82b41e	0.06382011
209	0x3da58736	0.0808243
210	0x3cf9d1cd	0.030495549
211	0x3cb6ffbe	0.022338744
212	0xbc6d5615	-0.014485856
213	0xbbf222c7	-0.0073893997
214	0xbdebb18b	-0.11508473
215	0xbd8263ff	-0.06366729
216	0x3c8b05ab	0.016970476
217	0xbc7d819a	-0.015472794
218	0xbaeeb1e3	-0.0018210973
219	0x3d9c737e	0.07639216
220	0x3d64b983	0.05584098
221	0xbab075d1	-0.0013462846
222	0xbd4a2ad7	-0.04935726
223	0xbdcbb190	-0.09945977
224	0x3db1c060	0.08679271
225	0xbda15497	-0.07877462
226	0x3d72bba1	0.059260968
227	0xbca0888f	-0.019596366
228	0x3dcf08af	0.10109078
229	0xbdbe8f0b	-0.09304627
230	0xbdaf4140	-0.08557367
231	0x3c8de068	0.01731892
232	0xbbe336cf	-0.006934024
233	0xbd6fe54a	-0.058568276
234	0x3e153f6b	0.14574973
235	0xbdd1fb14	-0.102529675
236	0x3db43990	0.08800042
237	0x3d864437	0.0655598
238	0xbcfe7ef7	-0.0310664
239	0x3d5903ec	0.052982256
240	0xbcc6a183	-0.024246937
241	0xbde33267	-0.11093598
242	0x3dbe28c9	0.09285123
243	0xbd32f234	-0.043688014
244	0xbce76b08	-0.028249279
245	0x3e049dad	0.12950774
246	0x3dff73a7	0.12473231
247	0xbddae109	-0.10687453
248	0xbd0f011d	-0.03491317
249	0x3d8e1534	0.06937638
250	0x3d9b131e	0.07572006
251	0xbdd2d2bd	-0.102941014
252	0xbdd3c7a0	-0.1034081
253	0x3d755c22	0.059902318
254	0xbdc2f314	-0.0951902
255	0x3db6f67a	0.089337304

bias f4 [16]
0	0xbd437f15	-0.047728617
1	0x3d994654	0.07484117
2	0xbde05fa0	-0.10955739
3	0x3c00020e	0.00781299
4	0x3dc53f4d	0.09631214
5	0x3d18f35e	0.037341468
6	0x3d890045	0.066895045
7	0xbd7df4a4	-0.062000886
8	0x3c0b21e0	0.008491963
9	0xbdb9c22b	-0.09070238
10	0x3d3642c8	0.04449728
11	0xbac50ddf	-0.0015034041
12	0x3db371a0	0.087619066
13	0xbd0fca38	-0.03510496
14	0xbd998a67	-0.07497101
15	0x3de6345d	0.11240456

weight f4 [16]
0	0x3f8205fa	1.0158074
1	0x3f7a2b15	0.9772199
2	0x3f7fee48	0.99972963
3	0x3f82f751	1.0231725
4	0x3f7b5656	0.98178613
5	0x3f7f3c79	0.9970165
6	0x3f800107	1.0000314
7	0x3f81a931	1.0129758
8	0x3f7eb2d0	0.99491596
9	0x3f7b8eeb	0.9826495
10	0x3f7de16d	0.991721
11	0x3f7f8cb9	0.998241
12	0x3f7e45ec	0.9932544
13	0x3f78ed05	0.97236663
14	0x3f7d2219	0.98880154
15	0x3f7f74ac	0.997874

bias f4 [16]
0	0xbcc1699f	-0.023609934
1	0xbd4425c7	-0.04788759
2	0xbcc5be57	-0.024138613
3	0xbc65b9f7	-0.014021388
4	0xbd218e81	-0.039442543
5	0xbce1e3a9	-0.027574377
6	0xbc7eaa7c	-0.015543576
7	0xbc80ad8f	-0.01570776
8	0xbcfc45b4	-0.030794956
9	0xbca68080	-0.020324945
10	0xbd27db68	-0.040980726
11	0xbd03a7d3	-0.03214247
12	0xbd199bef	-0.037502225
13	0xbcdc8f39	-0.026923763
14	0xbd1ce0c4	-0.03830029
15	0xbc3ef346	-0.011654681

running_mean f4 [16]
0	0x00000000	0.0
1	0x00000000	0.0
2	0x00000000	0.0
3	0x00000000	0.0
4	0x00000000	0.0
5	0x00000000	0.0
6	0x00000000	0.0
7	0x00000000	0.0
8	0x00000000	0.0
9	0x00000000	0.0
10	0x00000000	0.0
11	0x00000000	0.0
12	0x00000000	0.0
13	0x00000000	0.0
14	0x00000000	0.0
15	0x00000000	0.0

running_var f4 [16]
0	0x3f800000	1.0
1	0x3f800000	1.0
2	0x3f800000	1.0
3	0x3f800000	1.0
4	0x3f800000	1.0
5	0x3f800000	1.0
6	0x3f800000	1.0
7	0x3f800000	1.0
8	0x3f800000	1.0
9	0x3f800000	1.0
10	0x3f800000	1.0
11	0x3f800000	1.0
12	0x3f800000	1.0
13	0x3f800000	1.0
14	0x3f800000	1.0
15	0x3f800000	1.0

weight f4 [32, 784]
0	0x3cf06a6c	0.02934762
1	0x3c86e1b8	0.016465053
2	0xbcce4a84	-0.025182016
3	0xbcc6e2d7	-0.024278088
4	0xbc49ead3	-0.012324053
5	0xbd066e44	-0.03282
6	0x3c0e7674	0.008695234
7	0x3cc3f16f	0.023918835
8	0x3cf24e3b	0.029578319
9	0xbc381c13	-0.011237162
10	0xbcc19af9	-0.023633467
11	0xbcea4729	-0.028598385
12	0x3994e29c	0.00028397597
13	0x3d03a1d2	0.032136746
14	0xbbe59ed6	-0.00700746
15	0x3cc9a756	0.024615925
16	0xbc8ff92e	-0.017574873
17	0xbd1320a3	-0.035919797
18	0x3b076ba2	0.002066352
19	0xbc9f6b8b	-0.01946046
20	0xbc9253a6	-0.017862152
21	0x3d0982cd	0.033572007
22	0xbcd33486	-0.025781881
23	0xbd219064	-0.039444342
24	0x3c27aa6e	0.010233505
25	0xbba3fcec	-0.005004516
26	0xbbe470e3	-0.006971465
27	0xbc947c39	-0.01812564
28	0xbc876745	-0.016528735
29	0xbbecb19e	-0.007223322
30	0x3c59877e	0.013276933
31	0xbcc08150	-0.023499161
32	0x3ce9f1c1	0.02855766
33	0x3b9f294e	0.004857219
34	0x3c242384	0.010018233
35	0xbcb43697	-0.021998687
36	0x3c2c713e	0.010525046
37	0x3ce66686	0.028125059
38	0x3d005a72	0.031336255
39	0x3c01b594	0.007916827
40	0x3bb871c7	0.0056287977
41	0x3b2f1af7	0.0026718953
42	0x3ca7fa7f	0.020505188
43	0xbc756287	-0.014977104
44	0xba0353a0	-0.00050097145
45	0x3b97bc0f	0.0046305726
46	0xbd137a19	-0.036005113
47	0x39e76455	0.00044134507
48	0xbc3ac35e	-0.011399118
49	0x3ceeee8c	0.029166482
50	0xbca54361	-0.02017373
51	0x3b98cb90	0.0046629384
52	0xbd07f743	-0.03319479
53	0xbd1995a7	-0.037496235
54	0x3cc5f3b9	0.024164068
55	0xbd179bc2	-0.037013777
56	0x3bf9f94c	0.0076285955
57	0x3c2f6b20	0.010706693
58	0x3aa1aead	0.0012335383
59	0xbcbb70af	-0.02288088
60	0xbc8ee066	-0.017440986
61	0xbc8dcd5b	-0.017309835
62	0xbcaf3055	-0.021385351
63	0xbc102a06	-0.008799082
64	0x3cbaae2e	0.022788133
65	0xbc8bad59	-0.017050432
66	0x3be374aa	0.0069413977
67	0xbc400aed	-0.011721355
68	0x3b716ca2	0.0036838432
69	0x3cfc07ae	0.03076538
70	0x3a823d29	0.000993644
71	0xbcee7ac7	-0.02911128
72	0xbcf7ed31	-0.030264469
73	0xbc17dd88	-0.009269126
74	0x3c935ead	0.01798948
75	0xbc854932	-0.016270254
76	0xbcaf9c5e	-0.021436866
77	0xbbcc1be9	-0.006228913
78	0xba33b725	-0.0006855599
79	0x3d0d0aa5	0.03443398
80	0x3cb07b21	0.021543087
81	0xbb78cb74	-0.0037963064
82	0xbd1f8e06	-0.038953803
83	0xbc07ccf3	-0.00828861
84	0xbb9ea986	-0.004841986
85	0x3b799284	0.0038081715
86	0x3c3bd266	0.011463737
87	0x3c995f8b	0.018722316
88	0x3b886aff	0.0041631456
89	0x3c62110d	0.013798011
90	0x3c0d2768	0.008615352
91	0x3d035c58	0.032070488
92	0xbb873109	-0.0041257185
93	0x3ce91d21	0.028456273
94	0xbd306c34	-0.04307194
95	0x3b447e64	0.0029982561
96	0xbc657c4e	-0.014006687
97	0xbcebbd74	-0.028776862
98	0x3c0016ab	0.007817904
99	0x3c757c1b	0.014983202
100	0xbc9af953	-0.018917715
101	0xbc831ec1	-0.016005876
102	0x3c87f2a5	0.016595194
103	0x3c923b08	0.017850414
104	0xbce262bb	-0.027634969
105	0x3b01e7c4	0.001982198
106	0xbb6bfb42	-0.0036007916
107	0x3ce7985f	0.028270898
108	0x3d129a36	0.0357916
109	0xbba3f70c	-0.0050038155
110	0xbb8992c2	-0.004198403
111	0xbb872aad	-0.0041249604
112	0xbd0a7d20	-0.033810735
113	0xbb744e31	-0.003727805
114	0x3cc56ece	0.024100687
115	0x3d48a066	0.048981093
116	0xbbcda75d	-0.006276055
117	0x3b0f2a50	0.0021845289
118	0x3c02d83a	0.007986123
119	0x3c47cd42	0.012194933
120	0x3b9f7ff2	0.004867547
121	0x3d01b4d9	0.03166661
122	0x3cc9fb63	0.024656003
123	0x3c00942d	0.007847828
124	0xbccdb499	-0.02511053
125	0xbc92c93a	-0.017918218
126	0x3c144806	0.009050375
127	0xbc886335	-0.016648868
128	0xbbf59cd2	-0.007495501
129	0xbbb36883	-0.0054751053
130	0x3a5e208e	0.0008473479
131	0x3d2bed59	0.0419744
132	0xbc119b11	-0.008887068
133	0x3ba14a83	0.0049222126
134	0xbca87dd0	-0.020567805
135	0xbcef54be	-0.029215213
136	0xbcf15dbf	-0.029463647
137	0xbcf0f563	-0.029413885
138	0xbcabd518	-0.020975634
139	0xbb8e1fdc	-0.004337294
140	0x3c958fc7	0.018257035
141	0x3b1cf249	0.0023948124
142	0x3c32e731	0.010919378
143	0x3c39130a	0.011296043
144	0x3c7d3235	0.015453865
145	0x3c356758	0.011072002
146	0xbc9478b0	-0.018123955
147	0x3cc65e66	0.024214935
148	0x3c63fa14	0.013914604
149	0xbd118ff0	-0.03553766
150	0x3cb9a9f5	0.02266405
151	0xbd0a718e	-0.0337997
152	0x3c790538	0.015198998
153	0x3ce8e913	0.028431451
154	0x3c61c748	0.0137804225
155	0xbd004ed6	-0.031325184
156	0x3c112b74	0.008860458
157	0x3c094b58	0.00837978
158	0x3c492c33	0.012278604
159	0xb98d1dbd	-0.00026915772
160	0xbcfcb071	-0.030845853
161	0xbc97e03b	-0.018539539
162	0xbc3686fb	-0.01114058
163	0xbb88ada5	-0.0041710907
164	0x3ce552d5	0.027993599
165	0xbc62336a	-0.013806203
166	0xbc81711f	-0.01580101
167	0x3bdb47f5	0.0066919276
168	0xbd078399	-0.033084486
169	0x3c61aa28	0.013773479
170	0xbce7e23b	-0.028306117
171	0xbd1e48c2	-0.038643606
172	0xbd2ac5da	-0.041692592
173	0x3d015499	0.03157482
174	0x3ced4d49	0.028967516
175	0x3c728072	0.014801132
176	0x3ade1d44	0.0016945978
177	0x3d4fba1b	0.050714593
178	0xbcfcd9e6	-0.03086562
179	0xbcff028c	-0.031129144
180	0x3a88865b	0.0010416018
181	0x3d0fc210	0.03509718
182	0xbcf77a01	-0.030209543
183	0xbd003856	-0.031303726
184	0x3d80371e	0.06260513
185	0x3d4ac66a	0.04950563
186	0xbc9860a0	-0.018600762
187	0xbcc2a1d3	-0.023758804
188	0xbaf75c49	-0.0018872108
189	0x3c25b15d	0.0101130875
190	0x3c87779c	0.016536526
191	0xbd3303a0	-0.04370463
192	0xbcad7928	-0.021175936
193	0x3ccb1654	0.02479092
194	0x3cf8d904	0.030376919
195	0xba5560dc	-0.00081397383
196	0xbbcebe96	-0.0063093407
197	0xbc2d332c	-0.010571282
198	0x3d07922e	0.033098392
199	0xbcc7fa7e	-0.024411436
200	0xbcf6a310	-0.030107051
201	0x3cfb4665	0.030673215
202	0x3b171487	0.0023053007
203	0xbc98d181	-0.018654587
204	0xbd1a1dd7	-0.037626114
205	0xbbb93f31	-0.005653285
206	0x3c1095fb	0.008824821
207	0xb93c99b1	-0.00017986332
208	0x3b2b7ba5	0.0026166227
209	0x3cb42ec9	0.021994965
210	0x3d0c83b7	0.0343053
211	0x3bfe8b1b	0.0077680475
212	0xbc200b24	-0.009768281
213	0xbca7f035	-0.020500282
214	0xbc68f75d	-0.014219132
215	0xbb0341ea	-0.0020028302
216	0x3cb867d3	0.022510445
217	0x3c9eac45	0.019369254
218	0xbc6c616c	-0.014427524
219	0x3ca4a4e8	0.020098165
220	0xbb022017	-0.0019855553
221	0xbc2d04ec	-0.0105602555
222	0x3d0240ea	0.031800188
223	0x3c5c8096	0.013458392
224	0xbc932e34	-0.017966367
225	0xbcadfc71	-0.021238538
226	0xbc686973	-0.014185297
227	0x3cbc603f	0.022995112
228	0xbcc91eed	-0.02455088
229	0x3cb3eb55	0.021962801
230	0xbba17382	-0.0049270997
231	0x3cdb715a	0.026787449
232	0x3cb55119	0.022133397
233	0x3cb68c7e	0.022283789
234	0xbbcb01b1	-0.00619527
235	0x3cd5e122	0.026108328
236	0x3ccdb4e0	0.025110662
237	0xbc753cf2	-0.014968144
238	0xbc2734ee	-0.0102054905
239	0x3ca0abef	0.019613234
240	0x3cb6bea8	0.022307709
241	0xbd0f7790	-0.035026133
242	0x3bc284b4	0.0059362296
243	0x3ccb0056	0.024780434
244	0x3cdfeed3	0.02733556
245	0x3be2835c	0.006912632
246	0x3d041ce0	0.0322541
247	0xbcf30269	-0.029664235
248	0xbd037be7	-0.032100584
249	0x3b6a7038	0.0035772454
250	0xbb9ad4d0	-0.0047250763
251	0x3c96c71c	0.01840549
252	0x3bffd4e8	0.007807363
253	0x3a008753	0.00049029774
254	0xbcb0bd19	-0.021574544
255	0xba9f962b	-0.0012175491

bias f4 [32]
0	0x3ce22be7	0.027608825
1	0x3c391c18	0.011298202
2	0x3b8290a2	0.0039845267
3	0xbc407cc5	-0.011748497
4	0xbbb2fda8	-0.005462367
5	0xbc0ebc4b	-0.008711885
6	0xbc174169	-0.009231904
7	0xbcb66146	-0.02226318
8	0xbc96772c	-0.018367372
9	0xbce5f304	-0.02806998
10	0x3ac53b7a	0.0015047633
11	0x3d010490	0.03149849
12	0x3ca5abc6	0.02022351
13	0xbc90d150	-0.017677933
14	0xbcd0294c	-0.025410317
15	0x3c07e8f4	0.008295286
16	0xbc5633dc	-0.013073888
17	0x3b01d451	0.0019810388
18	0xbca9bada	-0.02071898
19	0xbc8561f5	-0.016282061
20	0x3a146742	0.00056611386
21	0xbb94f395	-0.004545639
22	0x3c55bd56	0.0130456295
23	0xbc81352d	-0.015772427
24	0x3c01384b	0.007886956
25	0x3c8aa976	0.016926508
26	0xbb8d280f	-0.004307754
27	0xbd08bc82	-0.0333829
28	0x3b898353	0.0041965633
29	0x3cd19de3	0.025587982
30	0xbb018737	-0.0019764432
31	0x3c796ee1	0.0152241895

weight f4 [10, 32]
0	0x3e37feb7	0.1796826
1	0xbe617346	-0.2201663
2	0xbe146ce8	-0.1449467
3	0x3e25c2aa	0.1618754
4	0x3e560df9	0.20903768
5	0x3d9234aa	0.07138951
6	0xbc9e0b78	-0.019292578
7	0xbdef83c8	-0.11695057
8	0xbe12540b	-0.14289872
9	0x3dfed000	0.124420166
10	0x3d1a0448	0.03760174
11	0xbd402822	-0.046913274
12	0xbdb71a2c	-0.08940539
13	0xbda8a2ca	-0.082341745
14	0xbe20bccf	-0.15697025
15	0xbe0da237	-0.13831411
16	0x3e1f6c79	0.15568723
17	0x3e50be83	0.20385174
18	0x3cfb27da	0.030658651
19	0x3e37be2b	0.17943637
20	0xbe6b9630	-0.2300651
21	0x3e400f56	0.1875585
22	0x3d642ce4	0.055706874
23	0xbe845101	-0.2584305
24	0xbe6b2b13	-0.2296565
25	0x3e470fbc	0.19439596
26	0x3dbf0215	0.09326569
27	0x3dc4e3a3	0.09613731
28	0xbe52751e	-0.20552489
29	0x3d652767	0.05594578
30	0x3de58f27	0.11208945
31	0xbda525ce	-0.08063851
32	0xbe35ab9e	-0.17741248
33	0xbe1462b8	-0.14490783
34	0xbe49cd3a	-0.19707194
35	0xbe461cd3	-0.19346933
36	0x3c299329	0.010350027
37	0x3de904c9	0.11377866
38	0xbe57bd8e	-0.21068403
39	0x3e09d234	0.13459092
40	0x3e31fa1d	0.17380567
41	0x3e1eea69	0.15519108
42	0xbe501a0b	-0.20322435
43	0xbdffd11e	-0.12491058
44	0x3da0ec5e	0.078575835
45	0x3e9d2e96	0.30699605
46	0x3ca32c99	0.019918727
47	0xbe34613c	-0.17615217
48	0xbccc4c09	-0.0249386
49	0x3c0e8115	0.008697768
50	0x3e7298f4	0.2369116
51	0xbe2f332a	-0.17109361
52	0xb9704a9e	-0.0002291598
53	0x3e5e1e55	0.21691258
54	0x3cdc843b	0.026918521
55	0x3d0da732	0.034583278
56	0xbd25944f	-0.04042464
57	0x3d927cae	0.07152687
58	0xbd1c18e6	-0.038109683
59	0x3e1cd453	0.1531537
60	0x3e8ae33e	0.27126497
61	0xbda723b2	-0.08161105
62	0xbe2c602a	-0.16833559
63	0xbc46b034	-0.012126971
64	0x3d60f88a	0.054924525
65	0xbe72a057	-0.23693977
66	0x3dd88462	0.10572125
67	0xbe61140c	-0.21980304
68	0x3e1dab10	0.15397286
69	0x3e7748f7	0.24148928
70	0xbe3edca1	-0.18638851
71	0xbccb6fe9	-0.024833636
72	0xbd0b334f	-0.03398448
73	0xbe7b9813	-0.2456973
74	0x3e0f55d6	0.13997588
75	0x3e3636ab	0.17794292
76	0xbd001480	-0.03126955
77	0xbe6a011a	-0.22851983
78	0x3d4cf320	0.05003655
79	0xbe4d8bac	-0.20072812
80	0xbe2c05cd	-0.16799088
81	0xbe1f4413	-0.15553312
82	0x3e80bd4a	0.25144416
83	0xbdc5c9c7	-0.096576266
84	0xbe174001	-0.1477051
85	0x3e303603	0.17208104
86	0xbdf2fd77	-0.11864751
87	0x3c73ad68	0.014872886
88	0x3d9f924a	0.07791574
89	0xbd6e86ce	-0.05823403
90	0xbd839282	-0.064244285
91	0x3e6743f7	0.2258452
92	0xbdfa7690	-0.12229645
93	0xbdae1db0	-0.08501756
94	0xbd2fa608	-0.04288295
95	0x3d362ab6	0.044474326
96	0xbe0ecca0	-0.13945246
97	0xbd9b78b3	-0.07591381
98	0x3cb134c8	0.021631613
99	0xbdaa86e6	-0.08326511
100	0x3d73d480	0.059528828
101	0x3d45d838	0.048301905
102	0xbe44d62a	-0.19222322
103	0xbe19f4dc	-0.15034813
104	0x3e1e69bb	0.1547002
105	0xbe823da1	-0.25437644
106	0x3d2bb040	0.041916132
107	0x3d8cb9a2	0.06871344
108	0xbe702823	-0.23452811
109	0xbe352b58	-0.17692316
110	0xbe57f3a8	-0.21089041
111	0xbe2f39bb	-0.17111866
112	0x3e127af5	0.14304717
113	0x3e420f29	0.18951096
114	0x3ce413f9	0.027841555
115	0x3e2a093d	0.16605087
116	0x3dcc4903	0.099748634
117	0xbe2782b7	-0.16358458
118	0x3cd1b125	0.025597164
119	0xbc7e89ef	-0.015535816
120	0x3d599a4e	0.053125672
121	0xbe4ee2e8	-0.20203745
122	0x3e2c23d5	0.16810544
123	0x3e302946	0.17203245
124	0x3e663ec1	0.22484876
125	0xbe5cc9a6	-0.21561298
126	0x3de80303	0.113286994
127	0x3e54c660	0.20778799
128	0x3e2cdb26	0.16880473
129	0xbd9abee4	-0.07555941
130	0x3e1031d7	0.14081512
131	0x3dd87ae6	0.10570316
132	0xbe48c304	-0.19605643
133	0x3e1b38ed	0.15158434
134	0x3e9093b8	0.282377
135	0xbe0febae	-0.14054748
136	0xbd86b758	-0.06577939
137	0x3da41821	0.08012415
138	0x3e211a3a	0.15732661
139	0xbe3be0fd	-0.18347545
140	0xbe2b9ea9	-0.16759743
141	0xbc95fe5c	-0.018309765
142	0xbe3c6e5c	-0.18401474
143	0x3d95908a	0.07302959
144	0x3d8a2298	0.067448795
145	0x3d1f6c0c	0.0389214
146	0xbd9e60d0	-0.07733309
147	0x3da8871e	0.082288966
148	0x3d21aab8	0.03946945
149	0x3d29d92f	0.041466888
150	0x3e1fa7f5	0.15591414
151	0x3e74d187	0.23908053
152	0x3e6abf58	0.22924554
153	0xbcf84ba0	-0.030309498
154	0x3e2ddb92	0.1697829
155	0xbdc3cb1f	-0.09560227
156	0x3e104642	0.14089301
157	0xbd8004fd	-0.062509514
158	0x3ddc1e71	0.10747994
159	0xbe12b6e2	-0.14327577
160	0xbe2adc8d	-0.16685696
161	0xbde3ad22	-0.11117007
162	0x3d6a0181	0.05713034
163	0xbe0cc729	-0.13747849
164	0x3e3b7a05	0.18308266
165	0xbdc59738	-0.09647983
166	0x3c386274	0.011253942
167	0x3dfa1427	0.12210875
168	0xbe0d7d62	-0.13817361
169	0xbe390a83	-0.18070416
170	0xbdc8179d	-0.09770129
171	0xbe0da310	-0.13831735
172	0xbe6eadc7	-0.23308478
173	0xbdb96558	-0.09052533
174	0x3d7f48cb	0.06232528
175	0x3d19d9b8	0.03756115
176	0x3e64351b	0.22285883
177	0xbe5e49e2	-0.21707872
178	0xbe4cdea7	-0.2000681
179	0xbe22260b	-0.15834825
180	0xbce3e009	-0.02781679
181	0xbe661644	-0.22469431
182	0xbe56ccc1	-0.20976545
183	0xbd8eb706	-0.06968503
184	0xbe319400	-0.17341614
185	0xbcc427b6	-0.023944717
186	0xbd5a8100	-0.05334568
187	0xbdbaeded	-0.09127412
188	0xbdb8e96d	-0.090288974
189	0xbd9b5b02	-0.07585718
190	0xbcd42a34	-0.02589903
191	0x3cb82714	0.022479571
192	0x3e65cdfb	0.22441857
193	0x3d461a80	0.048365116
194	0x3d88e534	0.06684342
195	0xbdcebdf2	-0.10094823
196	0x3e02aa45	0.12760265
197	0x3d73c566	0.059514426
198	0xbe6626e3	-0.22475772
199	0x3d66f031	0.056381408
200	0xbdd67da2	-0.10473181
201	0xbe3aa61e	-0.18227431
202	0xbe6896e8	-0.22713816
203	0x3dd6f62d	0.10496173
204	0x3e5e9878	0.2173785
205	0x3db94544	0.090464145
206	0x3e1d1935	0.15341647
207	0x3e42f792	0.19039753
208	0xbd1e00fa	-0.03857515
209	0xbd49f554	-0.04930623
210	0xbe45f630	-0.19332194
211	0x3d132861	0.03592718
212	0xbe14ab41	-0.14518453
213	0x3da54c85	0.080712356
214	0x3e75e0de	0.24011561
215	0xbe12d470	-0.14338851
216	0xbe3a21f2	-0.18177012
217	0xbe41bbdb	-0.18919317
218	0x3e9ba0ec	0.3039621
219	0xbe6bf2af	-0.23041795
220	0xbd9247e3	-0.071426176
221	0x3e19fb25	0.1503721
222	0xbd89b3e9	-0.06723768
223	0x3e430ead	0.19048567
224	0xbde69b40	-0.1126008
225	0x3e9d6e47	0.30748197
226	0xbe25b13c	-0.16180891
227	0x3e2644ad	0.16237135
228	0x3cbcded2	0.023055468
229	0x3e41aaed	0.1891286
230	0xbc975a26	-0.018475603
231	0x3e145ebb	0.14489262
232	0xbe10c013	-0.1413577
233	0x3ce00e8a	0.027350683
234	0x3ddda847	0.10823112
235	0x3e899c65	0.26877132
236	0x3d807775	0.062727846
237	0xbe0e466d	-0.13894053
238	0xbc8edacf	-0.01743832
239	0xbe018d5c	-0.1265158
240	0x3e0dc32b	0.13843982
241	0xbe0e82ab	-0.13917033
242	0x3c9a9499	0.018869685
243	0x3e2a4bf3	0.16630535
244	0x3cec34fd	0.02883386
245	0xbe4f3a7d	-0.20237155
246	0x3e29e66d	0.16591807
247	0x3d7a6bf1	0.061138097
248	0x3ea3672b	0.31914648
249	0x3e22a342	0.1588259
250	0x3d318ff7	0.043350186
251	0x3e25cda4	0.16191727
252	0xbdd9aa0c	-0.10628137
253	0xbe169da9	-0.1470858
254	0x3ea3f012	0.32019097
255	0xbc5ef4bb	-0.013608153

bias f4 [10]
0	0xbe04256e	-0.12904903
1	0xbe2c3a6f	-0.16819166
2	0x3df28709	0.11842162
3	0x3debf5cf	0.11521494
4	0x3d7d841d	0.06189357
5	0xbd94027c	-0.07227036
6	0xbd4800c3	-0.04882885
7	0x3e24685e	0.16055438
8	0xbdec06dc	-0.11524746
9	0x3db59718	0.088667095
