models/Mnist-alpha0.1-ratio0.5/server.pt (torch, 114031 bytes, 16 tensors)

weight f4 [6, 1, 3, 3]
00000000: 3e4d 873d e225 60bd 6e91 e33d 654a 0fbd
00000010: 4421 143e 71be fc3d 073a a5bd eeb8 8bbe
00000020: 9741 953d 40fd 8abe c4d7 823d cefa 183d
00000030: 6f58 3ebd e795 8e3e e3b9 403c 5e60 2c3e
00000040: 9035 283e 88df 3fbe 102c f0bd a536 aa3e
00000050: 7f68 94be b427 c2bc 70a2 6b3c 5057 863e
00000060: 76aa f0bc 4a7f 073e 0d68 b93c 8ee7 2fbe
00000070: f853 4abe e409 2bbe 20b5 95be 58bf 69be
00000080: d8a8 933d a098 613e 90cb 8fba 9fcf 23be
00000090: f5d1 053e 79dc e3bd bc05 83bd b890 68be
000000a0: 16ba e3bd 9677 a6be 7615 b43d 83f8 f53d
000000b0: 0d99 203d 708a 2e3e 7082 083e 68f8 b6bb
000000c0: a67f 493d 7cba e93c 339c 2f3e 9a9d 643e
000000d0: c61a 713e 6427 4f3e
0.0660653 -0.054723628 0.11111723 -0.034983058 0.14465815 0.12341011 -0.080677085 -0.27289528
0.07287901 -0.2714634 0.0638881 0.03734856 -0.046471056 0.2784874 0.011763069 0.16833636
0.16426682 -0.18737614 -0.11727154 0.33244815 -0.28985974 -0.023700573 0.01438199 0.2623849
-0.029378157 0.1323215 0.022632623 -0.17178175 -0.19758594 -0.16702992 -0.2923975 -0.22826898
0.07209939 0.22030878 -0.00109707 -0.1599717 0.13068374 -0.11126036 -0.06397578 -0.22711456
-0.111194775 -0.32513112 0.08793156 0.120102905 0.03920846 0.17044997 0.13331008 -0.0055838116
0.049194 0.028531305 0.17149429 0.22325745 0.2354537 0.2022987

bias f4 [6]
00000000: a470 a6bd 2220 73bc b6bb 8abd 8490 463e
00000010: 9fa1 173d 55f5 9d3e
-0.08126953 -0.014839204 -0.06774084 0.19391066 0.03701937 0.30851236

weight f4 [6]
00000000: 5f89 803f ec6d 813f ac72 803f 0e64 793f
00000010: 2196 7b3f fced 823f
1.0041922 1.011167 1.0034995 0.97418296 0.98275954 1.0228877

bias f4 [6]
00000000: c44d 3dbc 6100 683b fc0f eb3b 5217 0abd
00000010: 3a2b 9fbc 6b85 0b3c
-0.011554185 0.0035400616 0.0071735363 -0.033713646 -0.019429792 0.008515696

running_mean f4 [6]
00000000: 0000 0000 0000 0000 0000 0000 0000 0000
00000010: 0000 0000 0000 0000
0.0 0.0 0.0 0.0 0.0 0.0

running_var f4 [6]
00000000: 0000 803f 0000 803f 0000 803f 0000 803f
00000010: 0000 803f 0000 803f
1.0 1.0 1.0 1.0 1.0 1.0

weight f4 [16, 6, 3, 3]
00000000: 4f47 c03d 0972 c2bd d0f2 603d 082e 173e
00000010: 64db 0e3e c13b 1c3d e3d7 1a3d 3885 fdbd
00000020: cdec ddbc 4027 9c3d 8208 c7bd 00c8 b83d
00000030: 621e a3bd 6207 de3c 12bd 40bc 38f5 0e3c
00000040: 9ead 91bc 8b30 02be 9ecd 82bb 26f5 5fbd
00000050: 9c2d fc3d 48a3 97ba 0950 fdbd b601 373d
00000060: fc95 453d d8a9 9ebd 2d34 9dbc 83c5 863d
00000070: 4558 95bd 621b 72bd 6e23 d0bb 6ace b2bd
00000080: 16d8 b83d 5836 703c 0784 ad3d 6237 953d
00000090: 0830 c9bd 5bd4 99bd dafc 9abd 6611 29bd
000000a0: 27ed 35bd 783f 97bc 1052 05be 120b 743d
000000b0: a463 973d 2cd5 913d 453f fc3d e54d f63d
000000c0: 4684 fdbd 76d1 a13c caae 083e 7cb2 e6bd
000000d0: 8730 b3bd d2fd 80bc 40cb acbd 9171 f1bc
000000e0: 4fcf 85bc eeec 003e 756f 62bc 39e2 9f3d
000000f0: 9d3b fa3d ac99 943d 0e48 edbd a4d4 c63d
00000100: 6a52 aa3d 56ea cdbd 9082 24bd 7af9 ca3d
00000110: 4ed5 f9bd 5916 fdbd 640e bfbd 5419 353d
00000120: 81ae 4ebd 67f0 03be 9eb6 593d 2e2c ba3d
00000130: 8290 743d 3b9c ddbd 175a 0a3e ae92 cbb9
00000140: 5431 ffbd 65a9 acbc 6c8a c23d b707 973d
00000150: 8548 8ebb 0c38 c83d 4afb ebbd de83 a33d
00000160: 4790 fc3d 48a9 aebd cebc 0e3d 8435 c9bb
00000170: aa16 dfbd 29ba 87ba c03d 1ebd 1ae5 e9bd
00000180: a788 dabd ea2a 993b 1f64 fe3d ecad 673d
00000190: 1d5d c9bd 1fa8 c13d 6631 f63c c780 fabd
000001a0: fc46 6a3c 3f22 b13d 6019 92bd b5dd edba
000001b0: 1758 84bd b430 c3bd ff71 56bd ddb0 953c
000001c0: 37c3 b23d 4ae9 bfbb 731b cfbd 16ef 2bba
000001d0: 943b d5bd 6eab 183b 902e e93d d2e9 953d
000001e0: 162a 84bd f67f 7abb 83a1 773d 1686 293d
000001f0: bdbf 06be 42a8 acbd 6f14 74bd cfb1 803d
00000200: fd8f 123e 1c3b 963d 1483 663d 3c47 e3bd
00000210: 46b3 b13d cc1a 363d b0a2 35bd 86f9 61bd
00000220: c198 1f3d 29a4 afbd 54ae 663d f8dd d73d
00000230: 355c c5bd 0843 a8bd f4ec 52bd 285a f2bd
00000240: 2246 14bc c59d 9e3d a3f7 2a3d 6b20 25bd
00000250: 2b40 8ebc ded4 75bd 1515 d7bd 607a 0cbd
00000260: bdb9 183c d460 abbd c8f5 c8bd 8ca9 7f3d
00000270: 922d e93c dd89 2bbd 1563 253d aae3 083e
00000280: d26a 84bb c3b4 ccbd 24f1 323e 2827 0c3e
00000290: 9934 a43c a34a 68bd 9b8b e2bc f2be 093e
000002a0: 0a8a 5b3d 2336 5fbd 6387 983c eece 463d
000002b0: b2b2 b63c 9862 f3bc a048 a8bd 0d72 1cbd
000002c0: 28b6 dabc d730 6cbd a591 6fbd 959f 17bd
000002d0: 42aa 1dbd 6b9b 923d 3fc2 ccbd 16a3 08be
000002e0: a074 f73d 6ee8 b13d d4fc 843d 4648 9d3d
000002f0: fa06 aabc 0ca5 a0bd 1ff5 b3bd 43fc dbbb
00000300: bc39 4b3d 2a62 ecbd 06a5 ccbd 3a0c ba3d
00000310: 9ffa cc3c 8a87 a73d 92a6 f23d bb8f 9f3d
00000320: 3221 6ebc 9ed7 4dbd 6e3b 243d 8f32 e73d
00000330: 3525 efbd 1cc6 f43c 78fb e7bd 939b a1bd
00000340: e379 853d eeea 9f3d a90b 033d f335 c53c
00000350: 1cc1 77bc 79ba c0bb 6ac3 e7bd f286 78bd
00000360: 64ef 893c 1ad0 a0bc b779 84ba d123 933d
00000370: 3e9d 553d d6a0 2ebc bc89 48bd 84ec cdbd
00000380: b0d9 a03d dc3e 9dbd 616f 7b3d 4c93 94bc
00000390: aa1d e03d d77d c0bd 868c b1bd 4433 7e3c
000003a0: 93fb ccbb 4651 6abd 5e92 1a3e cfcf d3bd
000003b0: 6ca5 aa3d 3f2d 8c3d 6307 0abd b826 543d
000003c0: 6a21 bebc 78fc e1bd 03f5 b33d 9c06 32bd
000003d0: fe8a e4bc 48f7 063e 0a59 003e 06db d8bd
000003e0: 8650 08bd d893 8c3d c7d9 9a3d de6c cebd
000003f0: 6595 d4bd 6494 773d dd2c bfbd 3fc7 b73d
0.09388601 -0.09494407 0.054919064 0.14763653 0.13950878 0.038142923 0.037803542 -0.12378925
-0.027090454 0.07624674 -0.097184196 0.09022522 -0.079647794 0.02710313 -0.011763828 0.008725457
-0.017782982 -0.1271383 -0.0039917966 -0.05467715 0.12313387 -0.0011569047 -0.12368781 0.044679366
0.04823874 -0.07747239 -0.019189918 0.06580641 -0.07292227 -0.059108146 -0.00635188 -0.087307766
0.0902559 0.014661394 0.08472448 0.07285954 -0.09823614 -0.07511207 -0.07567759 -0.041276358
-0.04441562 -0.018462881 -0.13019586 0.05958087 0.07392052 0.071207374 0.12316755 0.12026576
-0.12378745 0.0197532 0.13347927 -0.11264512 -0.0874949 -0.015746031 -0.08437204 -0.029473098
-0.016334204 0.12590382 -0.013820519 0.078068204 0.122184016 0.07255873 -0.11586009 0.09708527
0.083165005 -0.10054462 -0.040163577 0.09910865 -0.12198888 -0.12357778 -0.09328917 0.044213608
-0.05045939 -0.12884675 0.053152673 0.09090458 0.059708126 -0.10820814 0.13510929 -0.00038828462
-0.124605805 -0.021076867 0.09499058 0.07374518 -0.004342141 0.09776315 -0.11522539 0.07984136
0.12332206 -0.085283816 0.034848027 -0.0061404128 -0.10892995 -0.0010355163 -0.03863311 -0.11420651
-0.106705956 0.004674305 0.1242144 0.05656235 -0.09832213 0.09455895 0.030052852 -0.122315936
0.014299151 0.0864911 -0.07133746 -0.0018147739 -0.06462114 -0.09530774 -0.05235481 0.018272812
0.087286405 -0.0058566676 -0.101126574 -0.0006558759 -0.10411754 0.002329554 0.11385834 0.07319988
-0.0645334 -0.0038223243 0.060456764 0.04138764 -0.1315908 -0.0843053 -0.0595898 0.06283914
0.1431274 0.07335493 0.05627735 -0.11097571 0.08676772 0.04445915 -0.044344604 -0.055169605
0.038964037 -0.08576233 0.056318596 0.10540384 -0.09636728 -0.0821591 -0.051495507 -0.11833602
-0.009049924 0.07744936 0.04174007 -0.04031412 -0.017364582 -0.06001746 -0.10502068 -0.034296393
0.009321627 -0.08368078 -0.09812504 0.062417552 0.028464112 -0.041879524 0.040377695 0.13368097
-0.0040410543 -0.09995415 0.174748 0.13686812 0.020044612 -0.056711804 -0.02765446 0.13451746
0.05359844 -0.05449499 0.018619245 0.048537187 0.022302005 -0.0297101 -0.08216977 -0.038194705
-0.026698187 -0.057663765 -0.058488507 -0.037017424 -0.03849245 0.0715855 -0.09997987 -0.13343462
0.12082791 0.086869106 0.06493536 0.07679801 -0.02075528 -0.0784398 -0.087869875 -0.0067134215
0.049615607 -0.11542161 -0.09992413 0.09084363 0.02502185 0.08180149 0.11848177 0.07791086
-0.014534282 -0.050254457 0.04009574 0.1128894 -0.116770186 0.029879622 -0.11327261 -0.078910016
0.06517389 0.07808481 0.031993542 0.024073577 -0.015121724 -0.0058816043 -0.11316569 -0.06067557
0.016837783 -0.01963048 -0.0010107075 0.07184566 0.05215191 -0.010658463 -0.04895948 -0.100548774
0.078540206 -0.07678005 0.061385516 -0.018136643 0.10943158 -0.09399002 -0.08669381 0.015515152
-0.006255576 -0.057206415 0.15094897 -0.10342371 0.08332333 0.068445675 -0.03369845 0.051794738
-0.023209292 -0.11034483 0.08786967 -0.043463334 -0.027898308 0.13180268 0.12533966 -0.105886504
-0.033279918 0.068641365 0.07561069 -0.100793585 -0.10380057 0.06044425 -0.09334729 0.0897355

bias f4 [16]
00000000: 1b7f 43bd 5446 993d a55f e0bd 0b02 003c
00000010: 4c3f c53d 5bf3 183d 4300 893d aff4 7dbd
00000020: dc21 0b3c 2cc2 b9bd cc42 363d 470e c5ba
00000030: a771 b33d 39ca 0fbd 6a8a 99bd 6234 e63d
-0.04772864 0.07484117 -0.10955743 0.007812987 0.096312135 0.037341457 0.06689503 -0.062000927
0.008491959 -0.090702385 0.044497296 -0.0015034162 0.08761912 -0.035104964 -0.074971035 0.1124046

weight f4 [16]
00000000: 72f0 803f ad35 7a3f e24b 7f3f 162f 823f
00000010: 18df 7a3f 6ae9 7e3f 9135 7f3f f93a 813f
00000020: 2e3a 7e3f ea23 7a3f 0cbc 7d3f 6650 7e3f
00000030: 1af4 7d3f 67d6 763f b08d 7c3f b26c 7f3f
1.0073378 0.9773815 0.99725163 1.017062 0.97996664 0.9957491 0.9969111 1.0096122
0.99307525 0.9771105 0.9911506 0.9934143 0.99200594 0.964209 0.986537 0.9977523

bias f4 [16]
00000000: bb99 dabc d000 48bd 6e1c e1bc 8436 90bc
00000010: cb3a 27bd f51d ecbc 1ca0 79bc 6efe 7fbc
00000020: ab17 03bd f22a c9bc 4e83 29bd 0e2d 17bd
00000030: 92ce 16bd 7b01 01bd ba39 1fbd 72bc 6fbc
-0.026684633 -0.0488289 -0.027479377 -0.01760412 -0.040827554 -0.028822878 -0.015235927 -0.015624626
-0.032004993 -0.02455661 -0.041384988 -0.036908202 -0.036818095 -0.031495553 -0.03887341 -0.014632331

running_mean f4 [16]
00000000: 0000 0000 0000 0000 0000 0000 0000 0000
00000010: 0000 0000 0000 0000 0000 0000 0000 0000
00000020: 0000 0000 0000 0000 0000 0000 0000 0000
00000030: 0000 0000 0000 0000 0000 0000 0000 0000
0.0 0.0 0.0 0.0 0.0 0.0 0.0 0.0
0.0 0.0 0.0 0.0 0.0 0.0 0.0 0.0

running_var f4 [16]
00000000: 0000 803f 0000 803f 0000 803f 0000 803f
00000010: 0000 803f 0000 803f 0000 803f 0000 803f
00000020: 0000 803f 0000 803f 0000 803f 0000 803f
00000030: 0000 803f 0000 803f 0000 803f 0000 803f
1.0 1.0 1.0 1.0 1.0 1.0 1.0 1.0
1.0 1.0 1.0 1.0 1.0 1.0 1.0 1.0

weight f4 [32, 784]
00000000: 89e8 f03c dbe0 853c 3ce8 cebc 8cac c9bc
00000010: 1d1d 49bc fb48 07bd 663a 0d3c fdda c23c
00000020: 2514 f33c 0e56 37bc cc2e c1bc 256e eebc
00000030: b705 1039 5413 053d 81ab e8bb 8336 c93c
00000040: 0e9d 8ebc 635b 03bd beb1 833b 31af b6bc
00000050: 16ec 94bc 9bc0 0a3d dc40 cfbc 48ee 25bd
00000060: 1a75 203c 0b96 e4bb 74d9 cabb f022 95bc
00000070: 7f6e 88bc 9d1a f2bb 67a9 273c 396a adbc
00000080: 121e 013d 3f0f 823b a33a 283c d8a1 b6bc
00000090: 7516 173c 8c0f aa3c 2097 d43c 14c7 5b3b
000000a0: 5ada 963b 54d4 2c3b 51f6 a43c 9592 77bc
000000b0: 67e8 2eba 8f88 c83b 8c51 0bbd 2b26 013b
000000c0: c5ed 32bc 0a61 f13c 828b a6bc bc98 943b
000000d0: afe0 09bd 9270 18bd 5ab8 c73c 1ca7 17bd
000000e0: 06d6 fa3b 7db5 333c 858e 843a 14f1 b8bc
000000f0: 571c 8ebc e8b7 a4bc 1ce5 b8bc 65f8 0ebc
00000100: 79f5 b43c b3a5 8bbc 9d2f c23b 009d 60bc
00000110: 96c9 d33b 647e db3c f3da 843a 0fad e9bc
00000120: 490a ffbc 7ffe 35bc 0065 993c 3856 a7bc
00000130: e8a9 acbc f420 cbbb ee37 70ba be0d 083d
00000140: be7f 873c 5484 7bbb a3fd 1ebd 7c6e 16bc
00000150: 8639 9cbb b0ce 5f3b ce14 1c3c 1a26 783c
00000160: bcca 2b3b b067 383c 4614 283c f142 033d
00000170: 9321 a3bb 3bc0 df3c a61a 33bd 0f77 733b
00000180: 67e7 71bc a444 e9bc aba8 fa3b 9df7 703c
00000190: 4dcd 9ebc 4b4b 88bc a9f9 7c3c ddfc 833c
000001a0: cea1 e3bc 3a55 113b 9623 56bb 2407 e83c
000001b0: 0eec 0a3d 898d b1bb 561f 3cbb fab3 96bb
000001c0: 3070 09bd 5ca9 66bb 24d3 c23c 0a47 423d
000001d0: 861f 2cbc b685 b63a 1c32 073c caa5 4f3c
000001e0: bc51 9e3b e2e3 f23c ba9e b93c 7e4c 343c
000001f0: 0280 dfbc f621 a6bc 7c3c 183c f3a8 92bc
00000200: 3bef 01bc 3a5b 88bb 3465 703a 6c0e 203d
00000210: 88c7 2ebc 58c9 a23b 74bb b2bc 8a64 ebbc
00000220: ffd9 01bd a559 04bd 4626 b7bc 48e5 64bb
00000230: 86a9 963c a851 fd3a ce9e 303c 7e57 2e3c
00000240: b1ab 863c 18a6 3b3c ac26 92bc 1fdf c43c
00000250: dcdb 5c3c 3284 13bd e2d6 b33c 1c3c 0cbd
00000260: da31 723c 3624 e53c 7e90 5c3c 9151 01bd
00000270: cfc8 153c dee2 103c 0a58 3c3c ee07 55ba
00000280: 5db2 febc b0dc 98bc f855 2abc bec9 0abb
00000290: 330a e93c 2bce 42bc 38ed 91bc 3db8 ba3b
000002a0: f55a 08bd 8943 5e3c 2eee cebc aef6 2bbd
000002b0: 33f2 27bd 4470 003d e455 e03c 8a63 6e3c
000002c0: 39a7 913a 6035 4e3d 9180 f3bc 776c 04bd
000002d0: 4698 913a 5152 113d c4a7 fabc f084 0fbd
000002e0: 75b9 703d 668f 3e3d 4658 a1bc 1237 b4bc
000002f0: 839a 0bbb 1855 213c fa56 853c c7e4 2ebd
00000300: 3219 aabc 88b1 a83c f996 063d 4d1a 3bba
00000310: 5d66 ccbb 88ae 21bc fc8b 083d 3782 c2bc
00000320: c582 efbc 6349 003d 9957 3d3b 7d74 98bc
00000330: 8c01 16bd 4086 76bb 5e29 f93b 66b9 f5ba
00000340: d2ea 923b 768f ba3c b854 0d3d 6a98 113c
00000350: 2c88 64bc 70f2 9bbc 3fba 45bc f392 b3bb
00000360: e80e b73c a24f 9e3c f2ba 7dbc 3025 b73c
00000370: 5de0 71bb 70ca 34bc c760 f93c 5604 653c
00000380: a8f8 94bc b312 a0bc 1f4d 9dbc b0f3 ba3c
00000390: aaad b8bc de38 a23c 8e4f e3bb 4d07 d93c
000003a0: edde b53c fe1e 903c 3057 14bc 9145 b33c
000003b0: af9b bb3c 79e8 74bc 6e02 28bc 11b0 9d3c
000003c0: 76af bc3c 9082 06bd b0c0 ec3b 9be3 c33c
000003d0: c783 e63c 0277 d33b 6b9c 003d 9cdf fbbc
000003e0: f865 06bd 0340 473b 3ee3 a9bb e089 8f3c
000003f0: 01e1 fd3b 82cb ae38 660e b1bc d588 a3ba
0.029407756 0.016342571 -0.025257222 -0.02461841 -0.012275008 -0.033028584 0.00861988 0.023786062
0.029672692 -0.011189951 -0.023581885 -0.029105255 0.00013735039 0.032489136 -0.007100523 0.024562126
-0.017408874 -0.032069575 0.0040189913 -0.022300335 -0.01817898 0.03387509 -0.025299482 -0.040510446
0.009793544 -0.0069758943 -0.006190473 -0.018205136 -0.016654251 -0.0073884265 0.01023326 -0.021168815
0.031522818 0.0039691026 0.010267886 -0.02229397 0.009221663 0.020759366 0.025950968 0.0033535408
0.0046036663 0.0026371675 0.020136984 -0.0151106315 -0.0006672204 0.0061197947 -0.034013316 0.0019706588
-0.0109209465 0.029465217 -0.020330194 0.004534809 -0.03366154 -0.03721673 0.024379898 -0.037024602
0.007654908 0.010968563 0.0010113275 -0.022575893 -0.017347498 -0.020107225 -0.022570185 -0.008726214
0.022089707 -0.017046785 0.005926086 -0.013709307 0.00646324 0.026793666 0.0010136053 -0.028524904
-0.031132834 -0.01110804 0.018724918 -0.020426854 -0.021077111 -0.0061989967 -0.00091636076 0.03321623
0.016540404 -0.0038378434 -0.038816106 -0.009181615 -0.0047675995 0.0034150295 0.009526445 0.015145803
0.0026213368 0.01125519 0.01025874 0.032046262 -0.0049783676 0.027313342 -0.043726586 0.0037149822
-0.014764643 -0.028475113 0.0076495013 0.014707473 -0.019385004 -0.016637465 0.015440383 0.016111786
-0.027787115 0.0022176043 -0.003267502 0.028323717 0.033916526 -0.0054184836 -0.00287052 -0.0045990916
-0.033554256 -0.003519616 0.02378232 0.04743103 -0.010505563 0.0013925347 0.008251693 0.012673805
0.004831521 0.029649679 0.022658695 0.011004565 -0.027282719 -0.020279866 0.009291764 -0.017902827
-0.007930572 -0.0041612657 0.0009170354 0.039076254 -0.010667689 0.0049678497 -0.0218179 -0.028734464
-0.031702038 -0.032312054 -0.022357117 -0.0034926701 0.018391382 0.0019326704 0.0107800495 0.010640977
0.01643929 0.011453174 -0.017840706 0.024032174 0.013480153 -0.036014743 0.02195305 -0.034237012
0.014782393 0.027971368 0.013462184 -0.03157193 0.009142115 0.008843152 0.0114955995 -0.0008126487
-0.03109091 -0.01865992 -0.010396473 -0.0021177377 0.028447246 -0.011889975 -0.01781331 0.0056982324
-0.03328987 0.013565906 -0.025260057 -0.0419833 -0.041002464 0.031357065 0.027384706 0.014550099
0.0011112458 0.05034387 -0.029724391 -0.032330003 0.0011108003 0.035478894 -0.030597575 -0.03503889
0.058770616 0.046523474 -0.019695412 -0.021998916 -0.0021301813 0.009846948 0.016276825 -0.042698648
-0.020763967 0.020592466 0.032858822 -0.0007137403 -0.0062377886 -0.009868272 0.033336625 -0.023743732
-0.02923716 0.031319987 0.0028891324 -0.018610233 -0.03662257 -0.003761664 0.0076038083 -0.001874727
0.004483559 0.022773486 0.034504622 0.008886436 -0.0139484815 -0.019036502 -0.01206833 -0.005480164
0.022345975 0.019325081 -0.015486466 0.0223566 -0.0036907413 -0.011034593 0.030441655 0.013978085
-0.018184975 -0.019540166 -0.019201813 0.022821277 -0.022543747 0.019802507 -0.006936974 0.02649274
0.022201026 0.017592903 -0.00905399 0.021883758 0.022901384 -0.014948004 -0.0102544855 0.019248994
0.023032885 -0.032839358 0.0072251186 0.023912242 0.028139008 0.006453396 0.03139917 -0.030746274
-0.03281209 0.0030403144 -0.00518456 0.017521799 0.00774777 8.334873e-05 -0.021613311 -0.0012476692

bias f4 [32]
00000000: 7354 d53c 5044 093c 9ef4 cd3b e29b 6abc
00000010: 6264 9dbb 5812 23bc d6d9 05bc 8570 bfbc
00000020: 0596 89bc bb96 efbc 1b48 6eb9 f16f ee3c
00000030: d0cf 8e3c e510 91bc f7be ddbc 5aec 053c
00000040: 79e5 46bc 4345 133b e8d5 b3bc 73ec 8dbc
00000050: e8c9 783a 9c9c cfbb 9a32 2b3c da74 76bc
00000060: aa13 dd3b 9975 823c d24c 51bb 9721 0ebd
00000070: 971a cf3b 10d0 cf3c 4777 45bb f6e4 863c
0.026041245 0.008378103 0.006285264 -0.014319392 -0.0048032263 -0.009953104 -0.008169612 -0.023369083
-0.016795168 -0.029246679 -0.0002272431 0.029106112 0.017433077 -0.017708251 -0.027068598 0.008174026
-0.0121396715 0.0022471703 -0.021952584 -0.017324662 0.00094905356 -0.006335808 0.010449076 -0.015042508
0.006746729 0.015925216 -0.0031936658 -0.034700003 0.0063203084 0.025367767 -0.003013091 0.016466599

weight f4 [10, 32]
00000000: ccb6 313e 00fd 68be 8152 12be b3de 233e
00000010: 1b23 523e 538f 803d ca62 92bc 6b65 edbd
00000020: 0a52 18be 14d7 ed3d e2de 3f3d a503 72bd
00000030: e8a1 cabd 6855 bebd b2d6 0fbe 692c 05be
00000040: 2b43 243e 087d 4c3e a90d 7d3c 893d 293e
00000050: 4f00 69be db4e 3d3e bc0e 583d 547b 84be
00000060: ac8f 74be e207 3d3e e3f9 b93d a8f8 c13d
00000070: 2a45 55be b2f7 463d d6e4 de3d 3c6e 9ebd
00000080: 0f8e 2dbe e2e4 13be 2267 4dbe 23c3 42be
00000090: f67a 2c3b 6b28 f83d 8a80 56be 701e 063e
000000a0: 42ad 2c3e 4d9c 273e 535e 53be 0c5f 02be
000000b0: fc22 a53d 66f5 a13e a3e6 8e3c dab0 35be
000000c0: d7a5 fbbc 1422 483c 82a0 763e 9c51 2dbe
000000d0: 5e0c 0ebb 9a45 633e da40 043d 542f 183d
000000e0: d529 24bd 6af9 963d 1c31 17bd 1ea2 1e3e
000000f0: c089 8b3e f742 9abd ab3a 28be de26 7dbc
00000100: ddae 4d3d b838 6cbe 31c4 cb3d d816 59be
00000110: a136 0f3e 8861 603e 1783 42be 83a4 37bc
00000120: ca38 0cbd 62ed 7bbe 9bb6 033e 2177 2b3e
00000130: 0d3b e7bc ea10 5bbe 9168 5c3d 4207 3ebe
00000140: 5347 22be a05c 22be a880 773e 0995 cabd
00000150: af44 0fbe 4b5b 323e 74d6 f1bd 9c05 9b3b
00000160: a3ee 8c3d b9f3 66bd 6d3c 8cbd a2c1 5e3e
00000170: 0d14 eabd 9cfe aebd 6560 33bd ce83 3a3d
00000180: 6e72 0cbe 7ab2 99bd 989c 473c ec2d bebd
00000190: e885 8e3d 1634 6b3d 9a42 4ebe 4d0b 10be
000001a0: c46e 1a3e 8e30 82be fe14 313d 0360 af3d
000001b0: d017 69be 3612 43be 0833 50be 6a9f 38be
000001c0: 62a0 063e c06c 443e 31da 363d f0b5 2a3e
000001d0: 4ef8 b63d aaab 24be 5356 f43c 8dd6 80bc
000001e0: 4173 583d b918 4bbe d0d3 253e 0d02 3d3e
000001f0: ceb6 613e 9a33 5fbe 667a d83d 9af5 513e
00000200: 7196 303e df63 99bd a33d 213e f886 da3d
00000210: 8118 55be f5b2 153e d40e 953e 0d46 1abe
00000220: 4a8c 7abd 5a1d b63d 93fd 263e f44d 41be
00000230: 5792 2fbe 48f9 a0bc 9156 41be 8e3f 913d
00000240: 4451 763d 42ef 103d 7779 8dbd 615e b63d
00000250: 0291 453d a4a9 233d a915 163e 3c53 7c3e
00000260: 34f5 773e 2acd 12bd ca78 303e 8eac c7bd
00000270: 3feb 063e 06d8 81bd e0e6 e63d 249a 17be
00000280: c414 30be 0edc e2bd eaa8 873d 2e07 12be
00000290: f7b9 413e 6dde babd 9c2d 6a3c 5c2d d53d
000002a0: f055 08be 0cac 40be e0b2 dabd be59 06be
000002b0: b2db 71be b8af c4bd adbb 5f3d be86 e83c
000002c0: f96d 663e 6e71 5dbe d630 57be 5906 27be
000002d0: fc1f acbc 994d 77be 727d 54be 2054 76bd
000002e0: 3658 1abe a0e0 15bd 5acd 1cbd 6f24 cdbd
000002f0: 5476 adbd dcc4 8bbd 2ade c1bc 23b8 083d
00000300: a8d6 633e 4b71 133d 3f0d 883d 0bb7 c6bd
00000310: 7ae9 073e cf9f 893d c128 65be aa34 4c3d
00000320: 209a c9bd e7c9 37be cb8c 5ebe 7c5f f73d
00000330: 9d2d 563e 3257 aa3d a8dc 053e 537e 313e
00000340: d953 0cbd 4024 45bd 6895 2ebe 1049 623d
00000350: 212b 1fbe e853 ae3d 7226 6d3e 2daa 12be
00000360: f931 36be 6924 32be 641e 9a3e 12e5 5cbe
00000370: 667b a4bd 3f9f 133e 88c3 73bd 1768 3c3e
00000380: fdbe e3bd 69d0 a03e 6d40 28be d050 213e
00000390: 7710 2a3d d431 493e 4c19 98bc d85d 213e
000003a0: 37e8 0dbe 34bf b43c 1558 cd3d 2bcd 813e
000003b0: a0df 903d 1ced 04be ea2a 90bc ec21 e7bd
000003c0: e081 173e 2652 02be fd69 9b3b a8b3 253e
000003d0: deb2 063d 7808 55be 60a3 263e 4800 613d
000003e0: d096 963e 78b9 213e a31a 2b3d 902c 2a3e
000003f0: 6f32 d1bd fb6b 1bbe de5b a63e e10e 97bc
0.17354888 -0.22752762 -0.14289285 0.16002922 0.20521204 0.06277337 -0.017869372 -0.115916096
-0.14875045 0.116132885 0.046843417 -0.059085507 -0.098941624 -0.09293634 -0.14046744 -0.13005222
0.16041248 0.1996957 0.015445151 0.1652738 -0.22754024 0.18487112 0.052748427 -0.25875342
-0.23882931 0.18460038 0.09080865 0.094712555 -0.20827165 0.048576064 0.10883491 -0.07735869
-0.16948722 -0.1444278 -0.20058873 -0.19019751 0.0026318408 0.12117084 -0.20947471 0.13097548
0.16862968 0.16368218 -0.2064145 -0.1273157 0.08063313 0.31632537 0.01744396 -0.17743245
-0.030718727 0.012215156 0.24084666 -0.16925663 -0.0021674852 0.2219452 0.03228841 0.03715451
-0.040078957 0.07371791 -0.03691207 0.1549153 0.27253532 -0.07532304 -0.1642863 -0.015451161
0.05021559 -0.23068511 0.0994953 -0.2120012 0.13985683 0.21912205 -0.1899532 -0.011208656
-0.034233846 -0.24602273 0.12862627 0.16744663 -0.0282264 -0.21393171 0.05381066 -0.18557456
-0.1584752 -0.15855646 0.24170172 -0.098917075 -0.13991044 0.17417638 -0.11808482 0.0047308933
0.06881454 -0.056384776 -0.06847463 0.21753553 -0.11429606 -0.08544657 -0.0437931 0.045535855
-0.13715526 -0.07504745 0.012183331 -0.09286103 0.06959134 0.05742272 -0.20142594 -0.14066811
0.15081316 -0.2542767 0.04323291 0.08563235 -0.2276299 -0.19049916 -0.20331967 -0.18029562
0.13147119 0.1918211 0.044641677 0.16670966 0.08934079 -0.1608111 0.029826319 -0.015727306
0.05284429 -0.1983365 0.16194081 0.18457814 0.2204239 -0.21797028 0.10570221 0.20503846
0.17244889 -0.07489752 0.15746169 0.106702745 -0.20810129 0.14619048 0.29112875 -0.15065785
-0.061168946 0.08892317 0.16307668 -0.18877393 -0.17145668 -0.019650117 -0.18880679 0.070922
0.060136095 0.035384424 -0.06907933 0.0890472 0.048233993 0.039956704 0.146567 0.24641126
0.24214631 -0.03584019 0.17233577 -0.09749709 0.13175677 -0.06340031 0.11274505 -0.14804894
-0.17195421 -0.11077128 0.06624015 -0.14260551 0.18918596 -0.091244556 0.014293101 0.10409042
-0.13314033 -0.1881563 -0.10678649 -0.13120171 -0.23618963 -0.09603828 0.05462234 0.028384563
0.22502889 -0.21625301 -0.21014723 -0.16311015 -0.021011345 -0.24150695 -0.20750979 -0.06013882
-0.15072712 -0.036591172 -0.038281776 -0.10016715 -0.08469835 -0.06824657 -0.023665506 0.03337873
0.22249854 0.035996716 0.066431515 -0.097028814 0.13272658 0.06719934 -0.22378828 0.049854912
-0.0984385 -0.17948113 -0.21733396 0.12078759 0.20915838 0.083174124 0.13072455 0.17333345
-0.03425965 -0.048130274 -0.17049181 0.05524546 -0.15543796 0.085120976 0.23159197 -0.1432273
-0.177925 -0.17396702 0.3010131 -0.21571758 -0.08031349 0.14416216 -0.059512645 0.18399082
-0.111204125 0.31409004 -0.16430826 0.15753484 0.04151961 0.19647914 -0.01856675 0.15758455
-0.13858114 0.022063829 0.10026566 0.25351843 0.07073903 -0.12981075 -0.017598588 -0.11285767
0.14795637 -0.1272665 0.0047428594 0.16181815 0.032885425 -0.20804012 0.1627326 0.05493191
0.29411936 0.15793407 0.04177345 0.16618562 -0.102146976 -0.1517791 0.32491964 -0.018439712

bias f4 [10]
00000000: 4e72 00be 0878 2bbe 3c09 e73d 497e eb3d
00000010: 344a 773d d7cf 61bd d40d 64bd f6be 243e
00000020: 0e55 f2bd 524b ac3d
-0.12543604 -0.16745007 0.11281058 0.11498696 0.0603735 -0.055129852 -0.05567725 0.16088471
-0.11832629 0.08412804
