models/Mnist-alpha0.1-ratio0.5/server.pt (torch, 114031 bytes, 16 tensors)

weight f4 [6, 1, 3, 3]
000000 1b 90 86 3d 3f 5b 35 bd 28 f5 d0 3d d5 97 d4 bc
       0.06570455 -0.044276472 0.1020301 -0.025951305
000010 c6 6d 1c 3e 5a c1 f6 3d 0f 1a a7 bd ae 0a 91 be
       0.1527625 0.12048598 -0.08159267 -0.2832846
000020 16 da 88 3d 00 a1 8c be 56 2f 80 3d 6f 60 55 3d
       0.066822216 -0.27466583 0.062590286 0.05209392
000030 db c4 4c bd 24 20 91 3e 21 db 03 3d 7e a1 25 3e
       -0.049992424 0.28344834 0.0321914 0.16174886
000040 ab 38 28 3e cd b9 37 be 1e 0f 01 be c3 61 aa 3e
       0.16427867 -0.17941971 -0.12603423 0.3327771
000050 c4 fe 85 be fe f2 cb bc 03 ad ae 3c 29 6c 92 3e
       -0.26170933 -0.024896141 0.021322733 0.28598145
000060 00 33 0f bd b0 6a 05 3e a5 e7 f2 3b 5c dd 2d be
       -0.034960747 0.1302898 0.007412868 -0.16978973
000070 1a 23 4b be c3 a1 2b be 8f 7c 93 be 2e 4c 69 be
       -0.19837609 -0.16760926 -0.28805968 -0.22782966
000080 21 a4 95 3d 06 9e 68 3e e2 28 81 b9 45 43 23 be
       0.07306696 0.22716531 -0.00024635257 -0.1594363
000090 87 7a 06 3e 5d ab de bd 4d be 7f bd 35 f7 67 be
       0.13132678 -0.10872529 -0.062437344 -0.22652896
0000a0 a5 c8 e0 bd 9d ff a5 be b1 53 b8 3d 8e 72 fb 3d
       -0.1097577 -0.3242158 0.09000338 0.12277709
0000b0 69 13 2b 3d ea eb 2e 3e 9a e1 13 3e 64 00 1e 3c
       0.041766558 0.17082182 0.14441529 0.009643648
0000c0 88 41 43 3d 94 6f 07 3d 4c c0 39 3e 0c 18 5a 3e
       0.047669917 0.033065394 0.18139762 0.21298236
0000d0 3f 76 6f 3e f0 82 4b 3e
       0.23384951 0.19874167

bias f4 [6]
000000 d9 70 a6 bd 8a 1f 73 bc 88 bb 8a bd 83 90 46 3e
       -0.08126993 -0.0148390625 -0.0677405 0.19391064
000010 9f a1 17 3d 52 f5 9d 3e
       0.03701937 0.30851227

weight f4 [6]
000000 18 6c 80 3f 1d dc 81 3f 7d 98 80 3f 33 1d 79 3f
       1.0032988 1.0145298 1.0046536 0.9731018
000010 ff cf 7b 3f 14 7f 82 3f
       0.9836425 1.0195031

bias f4 [6]
000000 0a 19 71 bc bb 99 85 3b 07 20 70 3b a2 1e 09 bd
       -0.014715442 0.004077164 0.0036640184 -0.03347648
000010 21 ed 8c bc 35 3d 01 3c
       -0.017202916 0.007888128

running_mean f4 [6]
000000 00 00 00 00 00 00 00 00 00 00 00 00 00 00 00 00
       0.0 0.0 0.0 0.0
000010 00 00 00 00 00 00 00 00
       0.0 0.0

running_var f4 [6]
000000 00 00 80 3f 00 00 80 3f 00 00 80 3f 00 00 80 3f
       1.0 1.0 1.0 1.0
000010 00 00 80 3f 00 00 80 3f
       1.0 1.0

weight f4 [16, 6, 3, 3]
000000 39 c0 bf 3d 20 10 c1 bd 9e 58 67 3d c1 da 12 3e
       0.093628354 -0.09426904 0.056480996 0.1434126
000010 f3 90 0e 3e ad 67 10 3d ac 05 1a 3d a4 76 02 be
       0.13922481 0.035255123 0.037603065 -0.1274057
000020 03 37 00 bd d2 c9 a0 3d 9e 48 d0 bd 89 8c bc 3d
       -0.031302463 0.07850994 -0.10170101 0.092064925
000030 26 df 9d bd 4a 30 d3 3c f2 8b 8a bc ee 4f 28 3c
       -0.07708578 0.025779862 -0.016912434 0.010272963
000040 37 3b a2 bc b0 bb 02 be 9f 0d 1c bb 5c f2 6d bd
       -0.019803626 -0.1276691 -0.002381183 -0.05809246
000050 d6 fe fc 3d e7 af 1c bb f3 46 01 be ec c8 39 3d
       0.123532936 -0.0023908557 -0.12624721 0.04535763
000060 8d a5 3c 3d f0 4e a3 bd 93 b6 98 bc c3 40 86 3d
       0.04605632 -0.079740405 -0.018641746 0.06555321
000070 02 fd 93 bd b4 81 66 bd 96 be 9d bb 9c 11 ad bd
       -0.07225992 -0.05627604 -0.0048139794 -0.08450624
000080 d4 0d c1 3d d1 fe 7a 3c 76 29 af 3d 6f 61 96 3d
       0.09426466 0.015319542 0.0855283 0.07342803
000090 cd 30 ca bd 7f 8c 95 bd 23 bf 98 bd c4 9d 25 bd
       -0.09872589 -0.07302188 -0.074583314 -0.04043366
0000a0 10 2d 30 bd b2 f6 8e bc 56 03 03 be 93 84 7b 3d
       -0.043011725 -0.017451618 -0.12794241 0.06140573
0000b0 11 c0 9a 3d 85 b8 92 3d a2 1c f6 3d 77 22 ed 3d
       0.07556165 0.071641006 0.1201718 0.11578839
0000c0 a3 8b 01 be 5d e0 81 3c 9a 98 03 3e 4e 4e ea bd
       -0.12650923 0.015854055 0.12851182 -0.11440717
0000d0 62 12 b8 bd 78 6f 8e bc d6 4f af bd 40 84 ee bc
       -0.08987881 -0.017387137 -0.08560149 -0.029115796
0000e0 04 98 a1 bc 81 eb f7 3d 6e 76 81 bc e3 76 9d 3d
       -0.019725807 0.12105466 -0.015803542 0.076886915
0000f0 8e 51 eb 3d 22 35 91 3d 7b bc ee bd 9b 8f ca 3d
       0.11490165 0.070902124 -0.116570435 0.09890672
000100 21 c7 9e 3d e4 17 ca bd 48 ce 27 bd 29 fa cc 3d
       0.077528246 -0.09867838 -0.04096821 0.10008652
000110 c6 64 ff bd 01 c4 f5 bd 9a a5 c2 bd fc 23 2f 3d
       -0.12470393 -0.120002754 -0.09504242 0.042758927
000120 19 ed 50 bd 6d ee 04 be db a6 65 3d ce 79 be 3d
       -0.051007364 -0.12981577 0.05606733 0.09300576
000130 ce 91 6d 3d 9a 0b e2 bd 0d 62 0d 3e 2a 29 10 bb
       0.05800038 -0.11037369 0.13806935 -0.0021997192
000140 a8 66 02 be f7 22 ad bc 22 21 c2 3d ca e7 99 3d
       -0.12734473 -0.021134837 0.09478976 0.075149134
000150 eb 71 65 bb c4 67 c9 3d eb 7a ea bd dc e8 a3 3d
       -0.0035010527 0.09834245 -0.11449226 0.08003399
000160 d6 f9 fc 3d 3d 36 b0 bd 28 66 05 3d 2c 36 f0 bb
       0.1235234 -0.08604095 0.032568127 -0.0073306765
000170 da 5a df bd fe 1d 36 bb 7d fe 24 bd fb 45 ea bd
       -0.109060004 -0.0027788873 -0.04028176 -0.11439129
000180 44 7c db bd f0 64 8b 3b c7 5c fd 3d 0d b3 5f 3d
       -0.10717061 0.004253976 0.123712115 0.054614116
000190 eb 9f cb bd 2c 00 c4 3d 19 77 d0 3c b6 f2 f9 bd
       -0.09942611 0.09570345 0.025447415 -0.122044966
0001a0 ff 19 3c 3c ac cc b0 3d 98 30 9a bd 38 39 ae bb
       0.011480807 0.08632788 -0.075288 -0.0053168796
0001b0 54 56 7c bd 13 6b c9 bd e9 d7 5f bd 76 cc bc 3c
       -0.061605766 -0.09834876 -0.054649267 0.023046713
0001c0 4a 0f b4 3d 96 50 1d bc 78 c9 c8 bd da 54 92 3a
       0.08791979 -0.009601733 -0.09804052 0.0011164204
0001d0 58 ac dd bd 2d a5 1b 3b 1a 4e e1 3d f1 96 98 3d
       -0.108238876 0.0023749575 0.11001225 0.07450665
0001e0 74 49 83 bd 23 16 12 3c 89 eb 75 3d fa dd 3f 3d
       -0.064104944 0.008916411 0.060039077 0.046842553
0001f0 da a0 09 be b4 b2 ac bd 61 ce 75 bd 1e db 6d 3d
       -0.13440266 -0.084325224 -0.06001127 0.058070295
000200 b6 e5 0e 3e cc ca 9a 3d e1 58 75 3d 34 eb eb bd
       0.13954815 0.07558212 0.059899215 -0.11519471
000210 26 0e ae 3d f9 ac 3f 3d 79 74 3b bd d9 86 6b bd
       0.08498792 0.04679582 -0.045765374 -0.057501648
000220 20 df 18 3d 11 dd ac bd 8a df 59 3d f7 7b d2 3d
       0.037322164 -0.084406026 0.0531917 0.10277551
000230 c4 a8 c6 bd bc 41 ac bd 9d df 61 bd 6f 77 f0 bd
       -0.09700158 -0.08410975 -0.055144895 -0.1174153
000240 76 1e 4e bc 06 bf a0 3d 64 f9 2e 3d 49 68 2e bd
       -0.012580505 0.07848935 0.042718306 -0.042579923
000250 53 7c 92 bc af 2d 74 bd 7c 5d db bd cc 84 17 bd
       -0.017881548 -0.05961388 -0.1071119 -0.03699188
000260 19 36 3c 3c 79 1d b1 bd 34 a5 c5 bd ac bd 83 3d
       0.011487507 -0.086481996 -0.096506506 0.064326614
000270 7f 21 d6 3c 77 d7 0f bd c1 df 18 3d 0a 23 04 3e
       0.026139019 -0.035117593 0.037322763 0.12903991
000280 50 10 0e 39 51 fd ce bd dc 58 35 3e f5 31 10 3e
       0.00013548252 -0.1010691 0.17709678 0.14081557
000290 b1 c6 6e 3c bf dc 4a bd c1 ca dd bc bf fb 07 3e
       0.014573739 -0.049526926 -0.02707422 0.13279627
0002a0 12 57 5d 3d ad 4d 70 bd 9c b2 95 3c ff e9 5a 3d
       0.054038115 -0.058667827 0.018273644 0.053445812
0002b0 f1 36 d0 3c 84 52 fb bc 6e 64 a8 bd 92 7b 1f bd
       0.025416823 -0.030678995 -0.082222804 -0.038936205
0002c0 38 16 f9 bc 7f 2a 78 bd 3f 52 6b bd 47 ac fe bc
       -0.030406103 -0.060587402 -0.057451483 -0.031088008
0002d0 8e 42 0d bd e9 cb 9e 3d 53 82 c8 bd e6 0f 09 be
       -0.0344873 0.077537365 -0.09790482 -0.13384971
0002e0 8d 7c fb 3d 07 67 b1 3d 99 21 7f 3d 8c 79 9e 3d
       0.122796156 0.08662229 0.0622879 0.07738027
0002f0 2e 14 97 bc 7b 16 a3 bd 10 22 b3 bd 68 b0 b6 bb
       -0.01844224 -0.07963272 -0.08746731 -0.0055752285
000300 de 5e 4f 3d 58 a7 eb bd 1c 77 ca bd 71 fa ba 3d
       0.05062758 -0.11506528 -0.098859996 0.09129799
000310 83 1a cc 3c 51 c6 a2 3d ca a9 f4 3d 80 82 a5 3d
       0.024914986 0.07947982 0.11946447 0.080815315
000320 54 9e 46 bc 0e 27 4f bd f4 bb 28 3d 7a 30 e6 3d
       -0.012122709 -0.050574355 0.04119487 0.11239715
000330 ba b0 ee bd 2f b1 00 3d 19 fb eb bd 6b 23 9a bd
       -0.11654802 0.031418975 -0.115225025 -0.07526287
000340 0f 02 8e 3d 0b a2 9d 3d c7 87 06 3d 27 c3 c9 3c
       0.069339864 0.07696923 0.03284433 0.024629189
000350 1a 5e 82 bc e5 cf e9 bb c1 49 e5 bd 8b c4 68 bd
       -0.015914012 -0.0071353787 -0.11195708 -0.056828063
000360 29 e7 da 3b d9 eb af bc ee 85 e9 bb 96 f7 90 3d
       0.0066803885 -0.021474766 -0.0071265614 0.07078473
000370 98 77 3f 3d b4 d7 63 bc a0 7e 49 bd 27 41 d1 bd
       0.046744913 -0.013906408 -0.049193025 -0.10217505
000380 29 81 a4 3d 26 5d 96 bd ba 75 7b 3d 82 ba a5 bc
       0.08032448 -0.073419854 0.06139157 -0.020230535
000390 c0 65 e9 3d 4e 96 bf bd 04 e0 b8 bd 10 d8 98 3c
       0.113963604 -0.0935484 -0.090271026 0.018657714
0003a0 ef c4 02 bc c0 f5 80 bd 10 17 1b 3e 7a 82 da bd
       -0.007981523 -0.06296873 0.15145516 -0.10669418
0003b0 3b 7e ae 3d 2d 63 94 3d 2b f0 1a bd b6 57 4d 3d
       0.0852017 0.07245479 -0.0378267 0.050132476
0003c0 f5 ab b1 bc d8 ad e6 bd 28 9c aa 3d b4 bb 2f bd
       -0.02168844 -0.11263627 0.08330566 -0.042903617
0003d0 a7 41 e7 bc 65 00 06 3e d0 cf fd 3d 66 89 da bd
       -0.028229548 0.13086088 0.12393153 -0.10670738
0003e0 74 a3 01 bd 98 87 89 3d 30 03 9a 3d 0e ef cb bd
       -0.03165002 0.067153156 0.07520139 -0.099577054
0003f0 83 96 d4 bd 56 80 68 3d c6 00 c6 bd 43 f0 b3 3d
       -0.1038027 0.056763016 -0.09668116 0.08786061

bias f4 [16]
000000 18 7f 43 bd 54 46 99 3d 9c 5f e0 bd 18 02 00 3c
       -0.047728628 0.07484117 -0.10955736 0.007812999
000010 4d 3f c5 3d 5c f3 18 3d 44 00 89 3d aa f4 7d bd
       0.09631214 0.03734146 0.06689504 -0.062000908
000020 e1 21 0b 3c 29 c2 b9 bd c8 42 36 3d 32 0e c5 ba
       0.008491964 -0.09070236 0.04449728 -0.0015034138
000030 a6 71 b3 3d 38 ca 0f bd 69 8a 99 bd 5f 34 e6 3d
       0.08761911 -0.03510496 -0.07497103 0.11240458

weight f4 [16]
000000 5f 33 81 3f 41 b7 78 3f 03 2d 7f 3f 08 23 82 3f
       1.0093802 0.97154623 0.9967806 1.0166941
000010 c5 0c 7a 3f 82 5a 7e 3f 09 48 80 3f 81 23 81 3f
       0.97675735 0.99356854 1.0021983 1.008896
000020 11 ae 7d 3f 17 2a 7a 3f f0 3b 7d 3f 33 8b 7d 3f
       0.9909373 0.97720474 0.9891958 0.99040526
000030 ef 90 7c 3f 8a 08 77 3f 53 f1 7c 3f ea 65 7e 3f
       0.9865865 0.96497405 0.9880573 0.9937426

bias f4 [16]
000000 4a d7 db bc 92 ec 61 bd 11 63 f2 bc 23 25 92 bc
       -0.026836056 -0.05515725 -0.029588254 -0.017839974
000010 9e a3 34 bd f0 d3 f5 bc c1 ea 89 bc 6b 08 9a bc
       -0.04410135 -0.030008286 -0.016835572 -0.018802842
000020 42 b9 10 bd 16 55 d1 bc 6a d4 3a bd 48 44 29 bd
       -0.035332926 -0.025553267 -0.04561273 -0.041324884
000030 ef 7c 36 bd 75 96 03 bd b7 c3 22 bd 6f 28 90 bc
       -0.04455274 -0.03212591 -0.03973743 -0.017597405

running_mean f4 [16]
000000 00 00 00 00 00 00 00 00 00 00 00 00 00 00 00 00
       0.0 0.0 0.0 0.0
000010 00 00 00 00 00 00 00 00 00 00 00 00 00 00 00 00
       0.0 0.0 0.0 0.0
000020 00 00 00 00 00 00 00 00 00 00 00 00 00 00 00 00
       0.0 0.0 0.0 0.0
000030 00 00 00 00 00 00 00 00 00 00 00 00 00 00 00 00
       0.0 0.0 0.0 0.0

running_var f4 [16]
000000 00 00 80 3f 00 00 80 3f 00 00 80 3f 00 00 80 3f
       1.0 1.0 1.0 1.0
000010 00 00 80 3f 00 00 80 3f 00 00 80 3f 00 00 80 3f
       1.0 1.0 1.0 1.0
000020 00 00 80 3f 00 00 80 3f 00 00 80 3f 00 00 80 3f
       1.0 1.0 1.0 1.0
000030 00 00 80 3f 00 00 80 3f 00 00 80 3f 00 00 80 3f
       1.0 1.0 1.0 1.0

weight f4 [32, 784]
000000 15 f9 ef 3c 79 95 80 3c 40 be d2 bc 09 20 cd bc
       0.029293576 0.015696274 -0.025725484 -0.02503969
000010 da db 4e bc ad 7d 09 bd 22 91 02 3c 7d dc c4 3c
       -0.012625659 -0.03356712 0.007969173 0.024030918
000020 52 31 f2 3c 24 00 3d bc 33 85 c3 bc 26 5f eb bc
       0.029564533 -0.011535678 -0.023867225 -0.028731894
000030 d7 0f 3a 39 06 5c 04 3d 6c ab e4 bb 1b 99 c6 3c
       0.00017744243 0.032314323 -0.006978443 0.024242928
000040 8e 03 a1 bc 38 df 1b bd eb 90 0a 3b 78 56 a7 bc
       -0.019655015 -0.038054675 0.0021143507 -0.020426974
000050 d8 da 9b bc d8 d4 0a 3d 2c c9 ce bc 1b 95 26 bd
       -0.019025251 0.03389439 -0.02524241 -0.04066954
000060 c1 40 0e 3c 27 a2 d4 bb 4b ac bf bb 04 d5 92 bc
       0.008682431 -0.0064890566 -0.0058493963 -0.01792384
000070 84 6d 87 bc ed 42 ee bb 7d ef ff 3b 40 74 03 bd
       -0.016531713 -0.007271162 0.0078105316 -0.032093287
000080 e1 91 df 3c ab a9 98 3b 63 96 2a 3c 62 1f b6 bc
       0.02729124 0.004658898 0.010411832 -0.022231761
000090 f5 cf 52 3c 85 d2 ce 3c 33 56 e5 3c 25 95 71 3b
       0.012866964 0.025246868 0.027995205 0.0036862579
0000a0 cb c1 ff 3b b1 99 6f 3b 5b ad a7 3c e7 c3 78 bc
       0.0078050843 0.0036560113 0.020468405 -0.0151834255
0000b0 e1 b9 6a ba 8a f5 5f b9 b2 84 09 bd e5 f2 16 3b
       -0.000895409 -0.00021358408 -0.033573814 0.002303296
0000c0 fa 87 34 bc 37 de f0 3c 80 c6 ae bc bc 1f 68 3b
       -0.011018747 0.029402835 -0.021334887 0.0035419306
0000d0 5c 6d 0d bd 16 c1 1c bd e3 97 bf 3c 6a ea 1b bd
       -0.03452812 -0.03827008 0.023387855 -0.03806535
0000e0 90 43 fd 3b 10 e3 28 3c 97 39 c7 39 9d c3 c2 bc
       0.0077290013 0.010308042 0.00037999146 -0.023774916
0000f0 30 d0 82 bc d2 56 a1 bc 6c 97 bb bc ed 79 0e bc
       -0.015968412 -0.01969472 -0.022899352 -0.008696062
000100 dd 33 b2 3c ea f6 8c bc 7c a1 13 3c c7 34 52 bc
       0.021753246 -0.017207582 0.009010669 -0.012829966
000110 df d6 db 3a e7 71 ff 3c 47 74 8a 3a 35 25 ed bc
       0.0016772411 0.031182243 0.0010563218 -0.028948406
000120 67 42 00 bd 47 13 43 bc c8 4b 94 3c 1d b2 a2 bc
       -0.031313326 -0.011906452 0.018102542 -0.019860322
000130 56 58 bb bc 98 b5 c8 bb 1d 5f d6 ba 7d 54 01 3d
       -0.02286927 -0.0061251633 -0.001635525 0.031574715
000140 2c ee 96 3c 69 9d a0 bb b5 52 21 bd 3a 1b 06 bc
       0.018424116 -0.0049015773 -0.039385516 -0.008185202
000150 de fc 9b bb f3 62 3f 3b e2 bd 17 3c 3c 26 9f 3c
       -0.0047603687 0.0029203265 0.00926158 0.019427411
000160 03 b1 4d 3b 59 82 50 3c 8e 94 17 3c 03 d9 03 3d
       0.0031386025 0.01272639 0.009251727 0.03218938
000170 cf 29 b1 bb ec 8d e5 3c 0b 85 3c bd a9 83 dc b9
       -0.0054065953 0.028021775 -0.046025317 -0.00042059764
000180 48 73 63 bc a6 af ee bc 64 f0 f9 3b 60 0e 78 3c
       -0.013882466 -0.02913649 0.0076275337 0.015140146
000190 c9 94 9a bc 6c 19 86 bc 49 bf 84 3c 91 82 8b 3c
       -0.018869774 -0.016369544 0.016204493 0.017030032
0001a0 30 f5 e1 bc 44 18 33 3b a4 7f 44 bb 7a 11 e5 3c
       -0.027582735 0.0027327696 -0.0029983306 0.027962435
0001b0 e6 40 08 3d c9 cd c4 bb f0 12 e0 bb 03 ee 1d bb
       0.033265017 -0.006005977 -0.006838195 -0.0024098165
0001c0 69 2c 07 bd 82 46 80 bb be 5e bc 3c 25 44 4c 3d
       -0.033001337 -0.003914655 0.022994395 0.049869675
0001d0 e1 eb 2a bc ae 30 9b 3b 44 0f 12 3c d0 5a 58 3c
       -0.0104322145 0.0047360277 0.008914772 0.013205245
0001e0 aa ed aa 3b 37 5d 0b 3d b7 1d cf 3c 1c 06 d0 3b
       0.00521632 0.034024443 0.025282724 0.0063483845
0001f0 e2 75 d4 bc 31 81 9e bc b2 c8 21 3c c2 08 74 bc
       -0.025935117 -0.019348713 0.00987451 -0.014894666
000200 29 d0 7f bb cd 7b c9 bb b6 e7 e8 3a 13 d1 2a 3d
       -0.0039033985 -0.0061487914 0.001776925 0.041703295
000210 3d 8d fa bb 95 61 af 3b e9 ae 96 bc f7 aa da bc
       -0.0076462314 0.005352209 -0.01839395 -0.02669285
000220 02 87 e6 bc 6c 15 22 bd 74 4e 91 bc 22 d8 44 bb
       -0.028140549 -0.03957121 -0.017737605 -0.0030036052
000230 57 a8 9a 3c bc 1a 0f 3b e2 95 1e 3c ee ef 79 3b
       0.018879099 0.0021836003 0.00967929 0.0038137394
000240 10 0b 8f 3c da 5e 3f 3c c6 b6 8e bc c3 4c bd 3c
       0.01746133 0.011680329 -0.017421138 0.023107892
000250 4f 59 53 3c 89 c1 14 bd f2 39 b2 3c 7b 41 0f bd
       0.012899711 -0.036317382 0.021756146 -0.034974556
000260 1a 78 65 3c 6e e6 df 3c 9e e9 5b 3c 96 de 01 bd
       0.014005685 0.027331557 0.013422398 -0.031706415
000270 bb c1 0c 3c 89 ef fb 3b 2c 73 39 3c 36 fb 1b ba
       0.008591111 0.007688467 0.011318963 -0.0005950214
000280 98 65 fe bc 7c 76 99 bc 1f 63 43 bc d7 bc 3b bb
       -0.031054303 -0.018733256 -0.011925488 -0.0028646493
000290 a3 85 cd 3c 98 c3 22 bc d8 9f 85 bc c2 25 ab 3b
       0.025088137 -0.0099343285 -0.016311571 0.005223007
0002a0 a5 14 0a bd 98 5c 49 3c 31 47 cf bc a1 4f 27 bd
       -0.033711094 0.0122901425 -0.025302501 -0.040847424
0002b0 54 3e 2a bd d7 3e 09 3d 46 d5 ed 3c cd 0a 6d 3c
       -0.041563347 0.033507194 0.02903236 0.014467907
0002c0 cd 7c e4 b8 ad 67 37 3d 1f 59 14 bd 97 27 0e bd
       -0.00010895133 0.044776607 -0.036217805 -0.034705725
0002d0 e0 f7 0d ba 45 5f 10 3d f5 2b fb bc 7e c4 0a bd
       -0.00054156594 0.035247106 -0.030660609 -0.033878796
0002e0 0b 05 71 3d 85 c6 3c 3d 3a fb ae bc 2a 9c b0 bc
       0.0588427 0.04608776 -0.021360029 -0.02155884
0002f0 e3 83 19 bb 84 0e 20 3c b0 20 81 3c d2 7f 3e bd
       -0.0023424558 0.009769086 0.015762657 -0.046508618
000300 fc 09 a5 bc 9f c1 c9 3c e9 db 01 3d be b7 a8 ba
       -0.020146362 0.024628459 0.031703863 -0.0012872142
000310 97 c0 cc bb 38 5b 2f bc d5 2e 05 3d b0 44 cb bc
       -0.0062485444 -0.010702901 0.032515366 -0.024813026
000320 8a 73 f5 bc db 36 f9 3c 64 cf 11 3b 58 ee 97 bc
       -0.02996232 0.030421665 0.0022248859 -0.018546268
000330 55 9f 12 bd 21 86 8d bb 87 81 e0 3b 75 c5 0b bb
       -0.035796482 -0.004318968 0.0068513784 -0.002132741
000340 8c 29 71 3b 9c 01 bc 3c 1c fd 0c 3d 32 57 14 3c
       0.0036798446 0.022949986 0.03442107 0.009053992
000350 e3 59 51 bc 6d b9 8e bc 3a c8 5b bc eb 4b a6 bb
       -0.012777778 -0.017422402 -0.013414437 -0.005074968
000360 92 ab b5 3c 10 c0 9d 3c 06 3c 65 bc 87 93 ad 3c
       0.022176538 0.019256622 -0.0139913615 0.02118851
000370 3c 1f 0f bb 0d 5e 3f bc c9 f1 06 3d a6 46 86 3c
       -0.0021838685 -0.011680138 0.032945428 0.01639111
000380 88 69 95 bc df a6 a0 bc 26 73 8a bc 0f 4a 9e 3c
       -0.018238798 -0.01961082 -0.01690061 0.019322423
000390 17 05 bb bc 1a 4b cb 3c 3a 0b c1 bb fb a1 db 3c
       -0.022829575 0.024816085 -0.005891231 0.026810637
0003a0 e6 e4 b8 3c df c6 b6 3c bc f8 fb bb 1f 46 bb 3c
       0.022570085 0.022311626 -0.0076895636 0.022860585
0003b0 dd 26 bf 3c 42 10 69 bc 8f 0c 26 bc 93 6c 9e 3c
       0.023333961 -0.014225068 -0.01013483 0.019338882
0003c0 5d 84 b8 3c 1b d7 0f bd 33 c0 cd 3b c3 e6 cd 3c
       0.022524053 -0.03511725 0.0062790154 0.02513445
0003d0 38 32 e6 3c 5d e1 c4 3b 15 7d 00 3d fc a4 fb bc
       0.028100118 0.0060083107 0.031369288 -0.03071832
0003e0 1a dc 05 bd 40 de 46 3b 92 ba ad bb 81 fe 8e 3c
       -0.03268061 0.0030344874 -0.005301782 0.017455341
0003f0 d8 66 04 3c 45 16 8b 3a a9 76 c4 bc df 7f af bb
       0.0080811605 0.0010611495 -0.023982363 -0.0053558196

bias f4 [32]
000000 29 b4 cf 3c f3 ad da 3b 0b 40 8a 3b 69 a9 4f bc
       0.025354462 0.0066735684 0.0042190603 -0.012674668
000010 87 d8 ab bb 3d 1c 00 bc 99 83 d6 bb 5a 43 d0 bc
       -0.005244318 -0.0078192325 -0.0065464494 -0.02542274
000020 1e db 80 bc f1 22 cc bc 6c e0 b8 3a 33 af ef 3c
       -0.015729483 -0.024919005 0.0014104969 0.029258346
000030 56 de 83 3c c5 68 91 bc 78 d7 ff bc c7 28 85 3b
       0.016097229 -0.017750153 -0.031230673 0.004063699
000040 3f 2d 2c bc 71 08 bd 3b 5c 64 98 bc f5 1c 62 bc
       -0.010508834 0.0057688286 -0.018602543 -0.013800849
000050 7d 83 ff 39 05 a0 a3 bb 78 ac 49 3c 38 ce 72 bc
       0.00048735357 -0.004993441 0.012309186 -0.014819674
000060 4e c2 18 3c 2d 28 a0 3c 94 93 fb ba 3b 4f 01 bd
       0.00932367 0.019550407 -0.0019193762 -0.0315697
000070 d7 fc 16 3c 20 3a c3 3c 50 d8 24 b9 e1 27 7b 3c
       0.009215555 0.023831427 -0.00015720841 0.015329332

weight f4 [10, 32]
000000 e3 7e 32 3e dc 84 6d be 31 f8 0f be 34 90 18 3e
       0.17431216 -0.23195213 -0.14059521 0.14898759
000010 60 ae 51 3e fc b6 8e 3d e0 be a8 bc f4 ad ec bd
       0.20476675 0.06968495 -0.020598829 -0.115566164
000020 2a e0 1b be 52 33 f0 3d d6 68 23 3d 05 b5 4b bd
       -0.1522223 0.117285386 0.0398949 -0.04973318
000030 9e 95 cd bd af b9 b9 bd f8 30 16 be db 41 12 be
       -0.10038303 -0.090686195 -0.14667118 -0.14282934
000040 37 99 1f 3e 05 9c 48 3e 51 82 0e 3d d1 9c 2f 3e
       0.1558579 0.19590767 0.03479225 0.17149664
000050 d8 a0 6c be 6f 39 3d 3e c5 90 4d 3d e4 a6 83 be
       -0.23108232 0.1847894 0.05018689 -0.25713265
000060 09 85 6a be 2c 93 42 3e 15 12 b7 3d e0 11 d2 3d
       -0.22902311 0.19001454 0.08938996 0.10257316
000070 f7 1c 52 be 86 6b 55 3d f1 46 e5 3d 72 02 9e bd
       -0.20518862 0.052104495 0.111951716 -0.0771531
000080 00 81 39 be e4 f7 18 be 4a 56 4e be 03 31 54 be
       -0.18115616 -0.14938313 -0.20150104 -0.20721821
000090 5d f1 74 ba c4 70 f2 3d 77 1c 5f be a8 bf 11 3e
       -0.0009343827 0.118379146 -0.21788202 0.14233267
0000a0 89 90 3a 3e 1a 84 21 3e 62 52 63 be b0 9b fc bd
       0.18219198 0.15773049 -0.22199395 -0.123343825
0000b0 11 dd b1 3d 11 4b a3 3e 4c f8 d2 3c 2a b8 34 be
       0.08684743 0.3189321 0.025753163 -0.17648378
0000c0 67 ca ee bc b4 23 00 3b 21 c3 7d 3e 9a 8e 2e be
       -0.029149247 0.001955253 0.24781467 -0.17046586
0000d0 9b cc ea bb b9 f8 69 3e d9 9e 16 3d 62 19 28 3d
       -0.007165504 0.22848786 0.036772583 0.041039832
0000e0 4a 65 1d bd fc 03 93 3d 14 4f 32 bd 97 e1 1c 3e
       -0.038426675 0.07178494 -0.043532446 0.1532043
0000f0 30 aa 93 3e 59 db a6 bd fe ac 32 be 92 61 41 bb
       0.2884078 -0.08147306 -0.17448804 -0.002950762
000100 21 5b 6c 3d e8 ee 73 be 5b 98 d7 3d 55 e8 58 be
       0.057704095 -0.23821604 0.105271064 -0.21182378
000110 7e 83 11 3e 29 6f 70 3e d2 67 3a be 54 9f f5 bc
       0.14210317 0.23479904 -0.18203667 -0.0299832
000120 77 18 30 bd b6 d3 73 be d7 64 1b 3e dc c2 36 3e
       -0.04299208 -0.2381123 0.15175186 0.1784777
000130 0f f8 07 bd 10 63 6a be 6d 71 39 3d ac 72 4d be
       -0.03319555 -0.22889352 0.045274187 -0.20063275
000140 c8 1f 28 be 3a 77 25 be c5 1f 80 3e 7c 30 c4 bd
       -0.16418374 -0.16158763 0.25024238 -0.0957956
000150 86 51 18 be c8 46 2d 3e 49 2b f4 bd 5b cc 9d 3c
       -0.14874849 0.16921532 -0.119223185 0.019262483
000160 80 0f c6 3d 32 18 5a bd c0 e6 8d bd 39 62 6d 3e
       0.09670925 -0.05324573 -0.06928778 0.23182
000170 37 1a 00 be 59 f7 aa bd c6 0c 1f bd d9 9c 31 3d
       -0.1251 -0.08347959 -0.03883054 0.043362472
000180 89 39 0c be 20 14 8e bd bb 88 20 3c 4e 85 b5 bd
       -0.13693823 -0.06937432 0.009798224 -0.088633165
000190 30 c6 9e 3d 25 1f 61 3d c5 fb 50 be ba 3a 17 be
       0.07752645 0.054961342 -0.20408542 -0.14768496
0001a0 8a 37 1b 3e fd 7c 83 be b4 e5 26 3d 6e 80 a9 3d
       0.15157905 -0.25681296 0.040746406 0.08276449
0001b0 9b 44 6b be 29 cb 41 be 11 e6 59 be 8a 6f 42 be
       -0.2297539 -0.18925156 -0.2127917 -0.18987861
0001c0 16 57 0b 3e b8 26 47 3e be 59 0b 3d 4d 20 35 3e
       0.1360744 0.19448364 0.03402113 0.17688103
0001d0 c4 e8 b9 3d 51 61 22 be f0 08 60 3c 2d 5b c3 bc
       0.090776 -0.15857436 0.013674006 -0.023847187
0001e0 27 00 28 3d 35 22 47 be 86 b7 23 3e 9f 80 40 3e
       0.04101577 -0.19446643 0.15987977 0.18799065
0001f0 ba 5d 53 3e 4d 94 57 be 78 3f da 3d 33 8e 58 3e
       0.20641223 -0.21052666 0.10656637 0.21147995
000200 a5 42 2c 3e 19 1d 85 bd a5 3a 15 3e ad 4c d6 3d
       0.16822298 -0.064996906 0.14573152 0.104638435
000210 a4 c4 48 be f8 6c 10 3e 93 3d 93 3e e6 fb 17 be
       -0.19606262 0.14104068 0.28757915 -0.14842185
000220 83 13 69 bd e2 c8 aa 3d 34 2c 21 3e f3 cc 3c be
       -0.056903373 0.083390966 0.15739518 -0.18437557
000230 d7 43 28 be ea 79 7b bc 07 63 39 be 23 f6 a5 3d
       -0.16432129 -0.015348891 -0.18104182 0.081035875
000240 c4 3a 73 3d 1e e8 21 3d 51 df 9c bd 4c e3 99 3d
       0.059382215 0.039528005 -0.07659782 0.075140566
000250 7e e3 4f 3d 68 1a 2e 3d a4 e9 1c 3e d1 ea 7b 3e
       0.050754063 0.04250565 0.15323502 0.24601294
000260 47 38 71 3e cb 19 1b bd 02 5e 30 3e ba 40 d7 bd
       0.23556624 -0.037866395 0.17223361 -0.105103925
000270 89 a8 0f 3e 6e 4b 7c bd 80 0d d8 3d b5 29 1c be
       0.14029135 -0.061595373 0.1054945 -0.15250285
000280 e5 a6 34 be a3 d8 d0 bd 37 bf 83 3d 73 71 01 be
       -0.1764179 -0.1019757 0.06432956 -0.12640934
000290 f7 5d 3e 3e 05 d9 c1 bd 3c bc b8 3c 37 3d fd 3d
       0.18590532 -0.09465221 0.022550695 0.123651914
0002a0 00 4e 09 be ce a3 39 be 33 c9 c4 bd 13 0b 07 be
       -0.13408661 -0.18128893 -0.09608688 -0.13187818
0002b0 6b 3f 73 be ee b1 bb bd 34 f9 56 3d 09 99 20 3d
       -0.23754661 -0.09164797 0.052483752 0.039208446
0002c0 cf ac 62 3e 53 dd 5f be 8a 00 49 be 49 f3 26 be
       0.22136234 -0.21861772 -0.19629112 -0.16303743
0002d0 9b d3 86 bc cc 68 6e be 81 97 5c be e9 34 78 bd
       -0.016458323 -0.23282164 -0.21542169 -0.060597334
0002e0 c0 37 2f be 27 0b 00 bd 9c a5 41 bd cc 2f c6 bd
       -0.1711111 -0.031260636 -0.047277078 -0.09677085
0002f0 9a 31 c5 bd 14 9e 9f bd 37 e0 92 bc a3 b5 69 3c
       -0.09628601 -0.07793823 -0.01792918 0.014264497
000300 28 fe 5d 3e 73 56 45 3d 0e 72 56 3d c4 ad 91 bd
       0.21678984 0.048178148 0.052354865 -0.07113221
000310 73 9b eb 3d 71 fe 8d 3d a9 44 62 be c7 48 4a 3d
       0.11504259 0.069332965 -0.22096504 0.049385812
000320 5a c5 e4 bd 89 3b 3a be d8 9e 4b be b6 b2 a9 3d
       -0.11170454 -0.18186773 -0.19884813 0.082860395
000330 8a 22 4f 3e c5 f6 a2 3d ae 80 16 3e 6e 51 40 3e
       0.2022802 0.07957224 0.14697525 0.18781063
000340 43 71 d7 bc e3 a0 20 bd 38 00 41 be 8c 2d 15 3d
       -0.026299125 -0.039215934 -0.1884774 0.03642039
000350 59 0e 0a be ec 05 a8 3d 1a 33 76 3e 41 b3 17 be
       -0.13482036 0.082042545 0.24042931 -0.14814474
000360 f8 66 32 be 1d 95 33 be 18 3a 90 3e 08 db 57 be
       -0.17422092 -0.17537351 0.28169322 -0.21079648
000370 a2 87 86 bd 1d ce 06 3e 54 66 6b bd 7b 8d 2a 3e
       -0.06568839 0.13164563 -0.057470635 0.16655533
000380 8f f7 d3 bd c4 ac 99 3e 50 16 1c be 8c da 22 3e
       -0.103499524 0.30014622 -0.15242887 0.15903682
000390 09 5c 0c 3d 6f a0 37 3e c1 8c 4d bc c7 3e 12 3e
       0.03426746 0.17932294 -0.012545765 0.1428176
0003a0 06 bc 0d be dc 71 dd 3c c6 6d cc 3d e4 85 84 3e
       -0.13841256 0.027031831 0.09981875 0.258834
0003b0 a3 fd 87 3d dc d2 0a be d1 91 87 bc 18 53 ea bd
       0.06640174 -0.13556999 -0.016549023 -0.1144163
0003c0 bc c7 0c 3e 73 bf 05 be 38 9c c7 3b 9c ab 30 3e
       0.13748068 -0.13061313 0.006091621 0.17252964
0003d0 49 8d c9 3c 5c 15 50 be 79 79 2c 3e 29 e5 4b 3d
       0.024603503 -0.20320648 0.16843213 0.04977909
0003e0 1b 8d 99 3e ad 64 1e 3e 32 32 5b 3d a1 e4 16 3e
       0.29990467 0.15468092 0.053514667 0.14735653
0003f0 bd 7d de bd 49 8b 12 be 5e 5b a3 3e 7c 1d 40 bc
       -0.108638264 -0.14310946 0.31905645 -0.01172578

bias f4 [10]
000000 4c 19 f9 bd 59 2b 37 be 0f 2e e2 3d bd 83 03 3e
       -0.12163028 -0.1788763 0.11043941 0.12843223
000010 42 aa 90 3d 08 e0 98 bd 16 9b 37 bd 96 fc 1b 3e
       0.07063724 -0.074646056 -0.044825636 0.15233073
000020 13 56 da bd f9 77 9b 3d
       -0.106609486 0.07591242
