models/Mnist-alpha0.1-ratio0.5/server.pt (torch, 114031 bytes, 16 tensors)

weight f4 [6, 1, 3, 3]
00000000: 9e82 4d3d c853 2f3c 71a3 ef3d f00a 53bd
00000010: 6025 3c3e 49df 193e 5c25 0bbe eabc a5be
00000020: dcc3 b53d 7a10 9ebe f89f 203d 3603 113d
00000030: ce7b 9abd 766e 963e eb8b 813a c3c4 383e
00000040: de18 283e 4ef1 3ebe 7b51 0cbe be73 a53e
00000050: 2202 abbe 150d 78bd 3810 1a3d 629b 703e
00000060: 78e1 24bd 0c4f 4c3e fc61 903d f99c 2cbe
00000070: f1dc 4bbe 60ba 27be 32f1 8bbe 81a7 63be
00000080: 0bb5 a53d 8f47 843e 00a8 a03c 64ff 17be
00000090: 4635 d23d 53a6 8cbd efb5 3abd 7d14 79be
000000a0: fc82 afbd e1d3 9fbe 72f3 db3d dab0 433e
000000b0: d301 af3d 3757 0b3e 3b64 023e b632 c73c
000000c0: 9fb3 483d 80e5 563d 2fe1 3a3e 8918 5c3e
000000d0: e6c1 803e 6e3b 623e
0.050173394 0.010701127 0.11701096 -0.051524103 0.18373632 0.15026583 -0.1358847 -0.32370692
0.08875248 -0.30871946 0.039215058 0.035403453 -0.07543145 0.2938115 0.0009883618 0.18043809
0.16415736 -0.18646738 -0.13702957 0.32314867 -0.33400065 -0.06055935 0.037613124 0.23496774
-0.040254086 0.19952029 0.07049939 -0.16856755 -0.19908501 -0.1637969 -0.27332455 -0.22231866
0.08091172 0.25835845 0.019611359 -0.14843518 0.10264067 -0.06867661 -0.04558366 -0.24324222
-0.08569905 -0.31216338 0.10739793 0.19110432 0.0854527 0.13607489 0.12733547 0.024316173
0.048999425 0.052464962 0.18249963 0.21493734 0.25147933 0.22092983

bias f4 [6]
00000000: bf70 a6bd 721f 73bc 47bb 8abd 8490 463e
00000010: aaa1 173d 4df5 9d3e
-0.08126973 -0.01483904 -0.067740016 0.19391066 0.03701941 0.30851212

weight f4 [6]
00000000: 62bb 843f 3343 833f 09e7 7c3f 8c54 773f
00000010: 4e8a 7c3f c7db 7e3f
1.0369685 1.0254883 0.9879003 0.96613383 0.98648536 0.99554104

bias f4 [6]
00000000: dbd0 7fbc bd0a f9bc 8f05 0f3c 2b7a 38bd
00000010: f75c a3bc f864 37bc
-0.01561376 -0.030400628 0.008729353 -0.045038383 -0.01994179 -0.011193506

running_mean f4 [6]
00000000: 0000 0000 0000 0000 0000 0000 0000 0000
00000010: 0000 0000 0000 0000
0.0 0.0 0.0 0.0 0.0 0.0

running_var f4 [6]
00000000: 0000 803f 0000 803f 0000 803f 0000 803f
00000010: 0000 803f 0000 803f
1.0 1.0 1.0 1.0 1.0 1.0

weight f4 [16, 6, 3, 3]
00000000: d06a c63d b42b c6bd 70d6 933d 60c7 163e
00000010: be32 023e 1259 903d 31ca f03c 2de8 26be
00000020: 0c09 00bd 79ca 793d a6c1 98bd 2dbe 953d
00000030: f374 85bd 860e aa3c c656 a1bc e962 39bc
00000040: e495 0bbd 1ef1 18be a4fb d83b 6f32 73bd
00000050: 1a82 0c3e 7abd 6abc 35ed 0abe d6d9 213d
00000060: 2ad9 e03c ee9b afbd f860 56bd 9692 9b3d
00000070: 7251 81bd ab88 5cbd 23b9 943a 40de 9abd
00000080: cc7a c03d 070d cb3c 53ff be3d ba3d 993d
00000090: f60e acbd 7220 6ebd 7c6b 57bd bc7f 0bbd
000000a0: da40 33bd 6d52 9bbc dc70 f8bd ab4a 7b3d
000000b0: e24e 9c3d 30ba 823d 5aae f23d 48bd f53d
000000c0: cfbe 0ebe cffe af3b d14d e83d 8bb4 02be
000000d0: 4c4d dfbd f684 5dbd 8eb8 a2bd 2362 c7bc
000000e0: 51d2 09ba 2f50 d73d dddc 1ebd 0949 903d
000000f0: ef7c 0c3e 0121 863d 8cc7 f7bd c616 da3d
00000100: 3d1f 803d 3c4f c7bd 7ae9 45bd fc39 9e3d
00000110: 1c3e f9bd 0455 dbbd fe8d c7bd 6c96 363d
00000120: fffb 18bd 6dc5 1bbe 59e2 753d 3c35 d73d
00000130: 949e 283d 3a84 e3bd 9439 173e bed6 13bb
00000140: d338 07be 3bd9 95bc 977c cc3d 7087 a93d
00000150: 993f 373b 4dde da3d f084 cdbd d04c 873d
00000160: 71d1 e03d b248 b0bd 64a9 193d 2ae8 db39
00000170: 24fe dfbd 70ad 633b b792 d5bc e7dc dcbd
00000180: 1d56 06be 0151 f8ba be96 e73d c20e 8c3d
00000190: 2a83 f0bd c057 b83d 9624 473d 7419 06be
000001a0: 2847 a239 0e25 cf3d 056c 93bd f250 2abc
000001b0: 0a7d b2bd ef47 06be 2ed1 54bd f57b 9f3b
000001c0: ff57 d03d 9b48 953c 6f03 afbd 4e47 61bc
000001d0: 9217 90bd 333a 93bc d7a9 b73d 2823 9c3d
000001e0: 5984 62bd 4fe8 113d 1970 db3d 5ef6 3c3d
000001f0: 590f 17be 70a5 cbbd 5917 a4bd 8a96 8d3c
00000200: b021 e93d 1c1e 7b3d 5483 863d 2225 e6bd
00000210: bb58 6d3d f97f c73c 3897 2dbd 74fe 61bd
00000220: 6435 3f3d 4c66 aabd 09c5 583d bc94 e13d
00000230: 1086 e0bd c76b b2bd 7479 64bd ea88 fabd
00000240: 7532 2bbc aaae c13d 9700 823d 8b00 9ebc
00000250: 56e6 51bc 35de 76bd c49c d1bd 48df d5bc
00000260: d253 263c d1e3 00be 5c97 04be 0f93 213d
00000270: 3cc8 343b 3886 00bd 2542 633d 5c38 d93d
00000280: c555 21bc bcd0 debd 2b60 223e 72a7 043e
00000290: c8ab 2cbd c3da 06bd 32e0 003c 42c8 4b3e
000002a0: c3f4 883d 02c9 2bbd cf91 063d 2a86 1c3d
000002b0: 770a d63c 0cc5 75bc d572 bdbd 5145 4bbc
000002c0: 42e1 35bd 8c3a 4fbd d60c a7bd 48c4 74bd
000002d0: 42df 64bd 1d5a d63d 24d6 86bd 2380 0bbe
000002e0: 5263 0f3e 3a27 a13d 8abd e63c c0d6 a03d
000002f0: 14a5 04bd 2cac 8abd 9e60 adbd bc88 bf3b
00000300: 3e5e 803d 939b f2bd 8e42 cabd aeb7 cc3d
00000310: bd32 c83c 742d 9b3d 3a31 f33d 980e c03d
00000320: 2d2a 84ba 3cb1 46bd 8210 ca3c 9c84 f13d
00000330: 1472 d6bd f041 1c3d 6660 e9bd fb6d d5bd
00000340: 7f3c 663d 5b10 ad3d 302f 7e3c b98f d23c
00000350: a54d abbc e4d1 01bd c969 0cbe 718d a7bd
00000360: 0f39 1b3d c769 d53c bdcd 123c f0d1 e13c
00000370: dc76 533d 5639 40bc aa8d 3bbd 4337 b2bd
00000380: 9cac aa3d 095f d3bd ef0e 903c e35b c5bc
00000390: 6f6d d53d f2a6 dabd 1c48 95bd 2172 393d
000003a0: e82e 17bc 2a6f 2cbd bcc1 013e cb42 1bbe
000003b0: 1f10 be3d de26 a93d 7af2 6abd 17a1 a23d
000003c0: 1aa0 ef3b e401 cfbd a987 a53d dc83 4cbd
000003d0: 2499 23bd df49 fe3d 634b fe3d 8e84 dcbd
000003e0: a14d e1bc e682 703d 0b15 633d 8653 dcbd
000003f0: 9dba ffbd 1d72 5d3d 86ce d6bd 3618 bc3d
0.096883416 -0.096763045 0.07218635 0.14724493 0.12714669 0.07048239 0.029393287 -0.16299506
-0.031258628 0.06098411 -0.074588105 0.07311664 -0.06516447 0.020758878 -0.019694697 -0.011315086
-0.034078494 -0.14935729 0.006621795 -0.05937427 0.13721505 -0.014327401 -0.1356705 0.039514385
0.027447302 -0.08574663 -0.05233857 0.075963184 -0.063143626 -0.053841274 0.0011346679 -0.07561922
0.09398422 0.024786485 0.09326043 0.074824765 -0.08401291 -0.05813641 -0.05259274 -0.034057364
-0.04376302 -0.018960202 -0.12130901 0.061350506 0.07632233 0.06383169 0.11849661 0.11998993
-0.13939975 0.0053709517 0.11342967 -0.12764184 -0.10903415 -0.05408188 -0.07945357 -0.024338787
-0.0005257475 0.10513341 -0.03878485 0.0704518 0.13719533 0.06549264 -0.120986074 0.10648875
0.06255958 -0.0973191 -0.048318364 0.077259034 -0.121700495 -0.10709575 -0.0974388 0.044577047
-0.037349697 -0.1521203 0.060030315 0.105082005 0.041166857 -0.111092046 0.14768058 -0.0022558416
-0.1320527 -0.01829206 0.09984701 0.08277786 0.002796149 0.10686932 -0.100351214 0.06606448
0.10977448 -0.086076155 0.03751506 0.0004194391 -0.10937145 0.0034740828 -0.026070936 -0.10784321
-0.13118787 -0.001894504 0.11308049 0.06838752 -0.117437676 0.09001112 0.048618875 -0.13095647
0.00030952063 0.101144895 -0.071983375 -0.010395275 -0.087152556 -0.13113378 -0.0519573 0.0048670718
0.10173034 0.018223098 -0.08545577 -0.0137499105 -0.07035746 -0.017972087 0.08967941 0.07623893
-0.055301998 0.035621937 0.1071474 0.04613339 -0.14751948 -0.09943664 -0.08012266 0.017283697
0.113833785 0.06130801 0.065680176 -0.11237551 0.057945948 0.024353014 -0.04238054 -0.055174306
0.046681777 -0.08320293 0.052922282 0.11014697 -0.109630704 -0.08711963 -0.05577989 -0.122331455
-0.010449042 0.09457143 0.06347769 -0.019287368 -0.012811264 -0.060270507 -0.10234979 -0.026107445
0.01015182 -0.12586905 -0.12948364 0.039446887 0.002758517 -0.031378 0.055483002 0.10606453
-0.009847109 -0.10879657 0.15856998 0.129545 -0.04215601 -0.03292347 0.007865952 0.19900611
0.066873096 -0.041939743 0.032853898 0.038213886 0.026128037 -0.015000593 -0.09250418 -0.012406663
-0.044404276 -0.050592944 -0.08156745 -0.0597575 -0.055876978 0.104664065 -0.06583813 -0.13623099
0.14002731 0.0786881 0.028166551 0.0785346 -0.032383993 -0.067711204 -0.08465694 0.0058451574
0.06267975 -0.1184608 -0.098759755 0.099959716 0.024438256 0.07577029 0.118746236 0.093777835
-0.001008337 -0.048508868 0.024666075 0.11792871 -0.104709774 0.03814882 -0.1139534 -0.10421368
0.056210037 0.08450385 0.01551418 0.025703298 -0.020911047 -0.031694308 -0.13712229 -0.08181275
0.037896212 0.026051415 0.008960185 0.027565926 0.051627025 -0.01173242 -0.0457894 -0.087019466
0.08333704 -0.10320861 0.017585246 -0.024091667 0.104212634 -0.106763735 -0.072891444 0.045274857
-0.009227492 -0.0420982 0.1267156 -0.15162198 0.092804186 0.082593665 -0.05736015 0.07940882
0.0073127868 -0.101077825 0.08082516 -0.04993044 -0.03994097 0.124164335 0.124167226 -0.1076747
-0.027502837 0.058718584 0.05543999 -0.10758118 -0.124867655 0.054063905 -0.1048861 0.09184305

bias f4 [16]
00000000: 127f 43bd 5246 993d a75f e0bd 3002 003c
00000010: 4a3f c53d 60f3 183d 4600 893d aff4 7dbd
00000020: ac21 0b3c 2bc2 b9bd c742 363d 090e c5ba
00000030: a771 b33d 3bca 0fbd 6d8a 99bd 5e34 e63d
-0.047728606 0.07484116 -0.10955744 0.007813022 0.09631212 0.037341475 0.06689505 -0.062000927
0.008491915 -0.09070238 0.044497278 -0.001503409 0.08761912 -0.03510497 -0.07497106 0.11240457

weight f4 [16]
00000000: 664e 803f 594d 723f 5e6d 7f3f 5057 813f
00000010: e47e 763f fb6b 753f 1b17 813f 5fba 813f
00000020: a708 7d3f 3723 6e3f 3a21 773f 448f 7b3f
00000030: c05d 763f a149 6d3f 7976 793f 4a3e 733f
1.0023925 0.94649273 0.99776256 1.0104771 0.9628737 0.9586789 1.0085176 1.0135001
0.9884133 0.93022484 0.96535075 0.9826548 0.962368 0.92690474 0.974464 0.9501692

bias f4 [16]
00000000: 740e a4bd f6b3 ecbd 1481 8fbd 188a 60bd
00000010: 6303 e6bd b638 cabd 128c 8abd b631 79bd
00000020: 7145 b8bd 41a4 8fbd b38f e3bd 823d b1bd
00000030: c5d2 e4bd d759 a6bd bdcf c0bd d039 afbd
-0.08010569 -0.11557762 -0.070070416 -0.054819196 -0.11231115 -0.09874098 -0.067649975 -0.060838424
-0.0899762 -0.07013751 -0.11111393 -0.0865431 -0.111730136 -0.08122604 -0.09414623 -0.08555949

running_mean f4 [16]
00000000: 0000 0000 0000 0000 0000 0000 0000 0000
00000010: 0000 0000 0000 0000 0000 0000 0000 0000
00000020: 0000 0000 0000 0000 0000 0000 0000 0000
00000030: 0000 0000 0000 0000 0000 0000 0000 0000
0.0 0.0 0.0 0.0 0.0 0.0 0.0 0.0
0.0 0.0 0.0 0.0 0.0 0.0 0.0 0.0

running_var f4 [16]
00000000: 0000 803f 0000 803f 0000 803f 0000 803f
00000010: 0000 803f 0000 803f 0000 803f 0000 803f
00000020: 0000 803f 0000 803f 0000 803f 0000 803f
00000030: 0000 803f 0000 803f 0000 803f 0000 803f
1.0 1.0 1.0 1.0 1.0 1.0 1.0 1.0
1.0 1.0 1.0 1.0 1.0 1.0 1.0 1.0

weight f4 [32, 784]
00000000: 0611 df3c 06ad 723c 4fbf dcbc 8034 dfbc
00000010: 685f 6fbc d882 0abd f4ba e63b 4313 bd3c
00000020: e088 eb3c f870 3bbc d26a c6bc 7dd0 efbc
00000030: 346f 15b7 ca71 013d 2e1f 0dbc 8259 c43c
00000040: a80f 19bc 0f0b 89bc f688 123c 7d1d aebc
00000050: da24 8abc 7be1 083d 1773 c9bc e3cc 2dbd
00000060: 76a3 e5bb 7721 06bc bc23 3fbc 1a07 a5bc
00000070: ceae 8dbc d3af 64bc ae89 eb3b e005 24bd
00000080: 0fde a73c e18d d33b f041 223c 3925 c4bc
00000090: 8690 e73b 6ee5 e83c 895f 173d b836 0f3c
000000a0: d647 5e3b f418 643b 8071 a03c 9e72 90bc
000000b0: 0bae 193a a27f 433c 27a2 1cbd 2970 793b
000000c0: 9afb 23bc dc05 e53c 58e3 babc d7a2 c93a
000000d0: c954 19bd 7248 24bd f275 b13c 28bd 22bd
000000e0: 126e e93b 2a58 fd3b 071d 26bb 94c9 e5bc
000000f0: c862 3bbc a9b1 ccbc 25fa bfbc 68e5 18bc
00000100: 423f 9d3c 3181 d8bc 6054 383c 8528 02bc
00000110: 284e bc3c 7917 e43c dae3 323a 95e8 febc
00000120: 99a6 e9bc 37a0 c2bb b88a 113c 9cc5 c5bc
00000130: 4c9e 65bc f26c dbbb 6049 14bb dadb d53c
00000140: d588 b43c fd9f 9ebc 7fdf 31bd 79c1 9cbc
00000150: 5186 bcbb 98ac 1b3b c510 8a3c d082 8e3c
00000160: a8cb c5ba bdac 183c be8d ed3b d45e 013d
00000170: 36b2 3abc 550c f73c b3f6 12bd 93ab 0d3c
00000180: 5460 9fbc 4abe f8bc 8af1 a73b 81e2 793c
00000190: e5ff 98bc 8af8 8ebc a04b 803c 4972 8b3c
000001a0: 6386 e2bc bf37 d1b9 f208 33bb 9bb7 e33c
000001b0: 1425 273d 7294 fcbb 838c 0cbc 282f a7bb
000001c0: 51b3 17bd 10c2 edbb 9e7a 153d 65e6 7d3d
000001d0: da97 e2bb c896 65b9 5085 ba3a 40a3 2b3c
000001e0: ee8b 313c fc34 223d c06d 1c38 0849 8eba
000001f0: 9e46 acbc 1acb 94bc ec89 db3b 195b 76bc
00000200: 3853 ce3a 1e50 9bbc ce5e d73c b0e6 343d
00000210: f5a0 4bbc dc56 cb3a 0bbc a3bc a089 a6bc
00000220: acf9 8dbc 5a4d 13bc 789d 77bc e680 f4ba
00000230: 6f84 823c c6bb 433a a5c3 763c c6e1 f43b
00000240: 1d3b 783c ddd1 423c e9b9 90bc 7277 c23c
00000250: e9f1 573c 625d 11bd ec75 b23c 3702 0fbd
00000260: 3698 713c 56bf e13c fe92 563c fdaf 0dbd
00000270: 33f9 7a3b 51e3 9a3b 3b88 2d3c 763e 2fba
00000280: feff 04bd 458e adbc 6d5d a0bc 8af7 223a
00000290: 3372 9b3c 84c1 6ebc 8514 9cbc ddb0 ca3b
000002a0: 77e8 06bd 791f 7a3c 8cf3 f1bc ec6e 4dbd
000002b0: 2469 9ebc 2f42 393d 5209 df3c 18e7 6b3c
000002c0: e6ac f039 3ec1 6e3d 91bf 59bd 4992 8dbc
000002d0: f53f ca3a 79f2 163d 2c69 fcbc 30d7 2cbd
000002e0: 55f5 853d ffce 0c3d d33d dbbc d5c2 cbbc
000002f0: 80ff 62bb 66ed 243c 4c28 023c 0cde 34bd
00000300: b029 61bc cad9 853b 6035 063d bf93 02bb
00000310: 8170 e0bb 7456 2dbc e8fb 0b3d fff4 b5bc
00000320: 7c91 efbc ca68 f33c 1ebb 1a3b 7664 a8bc
00000330: e83f 0dbd 8512 bebb 97a3 e93b 9611 d2bb
00000340: c68d 8a3b 7029 b43c 436b 063d 9c09 613b
00000350: 4449 213b f062 8dbc c5fc 4abc d466 34bc
00000360: 0de4 cf3c 063b 983c b9a3 7dbc d0bc c93c
00000370: de7e 81bb 8f85 9cbb dba5 2a3d 3256 833c
00000380: 0cc6 a7bc 5834 67bc aaab a1bb c74d a73c
00000390: 96af f3bc 6019 6c3c d4d3 78bb 8309 d13c
000003a0: 9485 873c becb e13c 3294 4dbc 44bf 933c
000003b0: b9b6 d53c f9ad 55bc ab4f 38bc de2f 933c
000003c0: 4d0b c33c c948 e9bc 319a 0a3c 70d1 d13c
000003d0: 378e eb3c 655f e83b 29c3 043d 5964 e8bc
000003e0: b041 05bd fd67 283b e2f2 a3bb 9f42 953c
000003f0: 2aa5 d03b 1044 0e3b 0169 c0bc 99c8 efbb
0.027229797 0.01481176 -0.026946692 -0.027246714 -0.014610149 -0.03381619 0.0070413295 0.023080474
0.02875179 -0.011440508 -0.024220858 -0.02927422 -8.906984e-06 0.03160266 -0.008613391 0.023968462
-0.009342112 -0.016728906 0.008943787 -0.021254295 -0.016863275 0.03341816 -0.024591012 -0.042431723
-0.0070080115 -0.00818669 -0.011666235 -0.020144988 -0.017295267 -0.013957935 0.0071880436 -0.040044665
0.020491628 0.0064561223 0.009903416 -0.02394353 0.007066789 0.028429713 0.036956344 0.008741073
0.003391733 0.0034804912 0.019585371 -0.017632779 0.0005862421 0.0119322855 -0.038240578 0.0038061237
-0.010008717 0.027956896 -0.022813484 0.0015383613 -0.037434373 -0.04010815 0.021662686 -0.039731175
0.007123717 0.0077314572 -0.0025346891 -0.028050222 -0.0114371255 -0.024987059 -0.023434708 -0.009332038
0.019195203 -0.02642879 0.011250585 -0.007944231 0.022986487 0.027843224 0.00068241137 -0.031116763
-0.028521823 -0.0059395093 0.008883171 -0.024142079 -0.014014792 -0.006696337 -0.0022626743 0.02610581
0.022037903 -0.019363398 -0.043426033 -0.019135224 -0.0057533165 0.0023753997 0.0168537 0.01739636
-0.0015090602 0.009318528 0.007249563 0.031584576 -0.011395028 0.030157248 -0.035879802 0.0086468635
-0.019455113 -0.030364174 0.0051252292 0.015251757 -0.018676708 -0.017452497 0.01566106 0.017022269
-0.027651971 -0.0003990512 -0.0027318564 0.02779751 0.040806845 -0.0077081257 -0.0085784225 -0.005102057
-0.037036244 -0.0072558 0.03649389 0.0619873 -0.006915075 -0.00021895312 0.0014230404 0.010475934
0.0108365845 0.03960131 3.729551e-05 -0.0010855505 -0.021029767 -0.018163253 0.006699791 -0.015036368
0.0015741354 -0.018959101 0.026290324 0.044165313 -0.012428512 0.0015513557 -0.019987127 -0.020329297
-0.017330967 -0.00899061 -0.015113227 -0.0018654137 0.01593229 0.000746664 0.015061294 0.0074732034
0.015150812 0.011890856 -0.017666774 0.023738597 0.0131802345 -0.035489447 0.021784745 -0.03491422
0.014745763 0.027557056 0.013096569 -0.034591664 0.0038295507 0.0047268053 0.010591562 -0.00066850276
-0.032470696 -0.021186003 -0.019575799 0.0006216696 0.018975353 -0.014572505 -0.019052753 0.0061856345
-0.03293654 0.015266293 -0.029535078 -0.05015461 -0.019337244 0.045229133 0.027226124 0.014398359
0.00045905187 0.05828976 -0.053161208 -0.017281668 0.0015430438 0.036852334 -0.030811869 -0.042197406
0.06540934 0.034377094 -0.026762879 -0.024873177 -0.0034637153 0.010066366 0.007944178 -0.044157073
-0.013742849 0.0040848004 0.032765746 -0.001992449 -0.006849349 -0.010579694 0.034175783 -0.02221155
-0.029244177 0.029713053 0.0023610066 -0.020555716 -0.034484774 -0.0058005475 0.007130097 -0.006410788
0.0042283265 0.021992415 0.032817136 0.0034338003 0.002461032 -0.017259091 -0.0123893665 -0.011010844
0.025377298 0.018582832 -0.015480929 0.024626166 -0.0039518913 -0.0047766636 0.04166208 0.016032312
-0.020480178 -0.014111601 -0.004933794 0.02042283 -0.029746812 0.014410347 -0.0037968056 0.02551723
0.016543187 0.027562972 -0.01254754 0.018035538 0.026088106 -0.013041967 -0.011249463 0.01796716
0.0238091 -0.02847709 0.008459614 0.025612563 0.028754337 0.00709145 0.03241268 -0.028368162
-0.032533348 0.0025696747 -0.005003319 0.018220244 0.0063673453 0.002170805 -0.02348757 -0.0073176143

bias f4 [32]
00000000: baff b73c 32fb a13b 1892 bb3a f40e 90bc
00000010: a804 42bc 487e a0bb 341f b1bc 14d0 d8bc
00000020: b268 b8bb 2d9a 16bd 1092 cf3b dead e33c
00000030: b6d7 853c 16fd 4dbc 6cb3 edbc e00b 3dba
00000040: 3620 afbc 2ca8 543c aa6c 10bc a4fa 92bc
00000050: aa12 bc3b 9be0 8e3b 0259 0b3c 9050 9fbc
00000060: d148 a93b 2995 003c 1678 1bbc 38d3 a0bc
00000070: 57eb 8b3c c221 903c 6a54 16bc b10c 913c
0.022460807 0.004943275 0.0014310507 -0.017585255 -0.01184193 -0.0048978664 -0.021621324 -0.026466407
-0.005627715 -0.036768127 0.0063345507 0.027792867 0.01633821 -0.012572547 -0.02901622 -0.00072115473
-0.021377664 0.012979548 -0.00881497 -0.01794178 0.0057395296 0.004360271 0.008505108 -0.019447595
0.005166151 0.007848063 -0.00948908 -0.019631967 0.017079992 0.017594222 -0.009175399 0.017706247

weight f4 [10, 32]
00000000: 645b 893e 7f7b c4be 6628 59be 967d 573e
00000010: cac6 5b3e 5260 babd 6a70 04be 34fd f5bd
00000020: f99b 063d 611d 8e3e 4e09 21bc d775 dabd
00000030: 6e6a a03d c26f 1abd 33d0 10bd 7e30 12be
00000040: c0e8 593b 4753 ad3e 4b56 083d 81a4 933c
00000050: 2631 1dbe 0893 703e 04e2 753c cc53 dbbe
00000060: 1fed cabe 42f5 6f3e 82d6 053e 1e16 7d3e
00000070: b1d0 74be 54cf cabd 643e e4bd 8064 22ba
00000080: c7bb 98be eaab 4ebe 58cc 65be d51d 98be
00000090: bba7 c13d 8e05 593e 0d4a 87be 6c17 4c3e
000000a0: 7a3e 693e 5023 073e b1b7 5fbe 6dbf 73be
000000b0: 8421 453a 38c2 0b3f b63f 94bd 2863 93be
000000c0: 3bf9 51be 3672 ea3d b9c9 813e dc81 61be
000000d0: 89e2 8f3d 208e 8b3e 3ee6 8bbc 6e16 493d
000000e0: cf35 afbd f440 1cbc 1b9f 98bd a2ab 993e
000000f0: 8ede 013f 421e 32bd ebf1 83be a077 c33b
00000100: aa84 863d 3118 b3be 4e36 8f3e 1f88 96be
00000110: a8a8 1f3e 45cf b53e e080 09be 5ac9 2dbe
00000120: 0cca e6bd a9cd a0be 0b41 a53e 08d6 8c3e
00000130: fcb8 07be 9c98 d0be 6a04 953d b19e 8dbe
00000140: 3cf9 ecbd deca 88be ed7b ae3e ade7 02be
00000150: 9d11 aebe 249b 723e d61d 8fbd 483a 963d
00000160: 1029 313e ecef 05bd af1f b0bd cce9 923e
00000170: 1150 29be 1a8e 40be 3bba 2dbd e5a3 123d
00000180: 3da5 14be a497 d1bd eaa8 6a3d 1c63 0dbe
00000190: 4526 7c3c 9ea3 533e 9d03 58be 08ba 64be
000001a0: 3cc2 053e cad4 a3be dceb b63d bd79 373e
000001b0: b355 b0be b02f 78be fb3e a5be 4270 7ebe
000001c0: 8512 c03e b1e1 533e ed98 d63d f806 bc3e
000001d0: 5081 b23d 30af 69be 4b6d 423d b22a 09be
000001e0: d9b3 303e 99ee e4bd 9085 a43e bfb8 333e
000001f0: 1ed9 8b3e 51ba 85be 048c 463e 9c94 7c3e
00000200: 1172 1e3d e50c 19be 93eb 033e c4ac 0c3d
00000210: 66bc fcbd 9474 d8bc a0c6 d83e e532 75be
00000220: ad09 d0bb d1bb e73d 33fb 023e 8737 95be
00000230: 7223 46be 27e3 06be ee13 04be 3411 623e
00000240: f450 cfbc 7873 2c3d a630 17be f7a1 91bd
00000250: 690b 0c3e 44cf bbbc ca60 093e 70ad 0a3f
00000260: 276c 933e d92b 1abe e604 953d f843 a8bd
00000270: 46d5 813e d27b 9ebd 0366 253d 9d99 0abe
00000280: 5c29 21be 84b4 73bd 1cf6 1b3e 801d 20be
00000290: f64b 603e 9cf4 a5bd 7e97 913d 7db9 433e
000002a0: 14dd 6ebe 6264 96be 002d 3cbd 3435 03be
000002b0: 48a7 afbe 3de0 13be 514c df3b 28fe 823c
000002c0: 324a c33e 6b8c cebe aa8f 5fbe 8e61 40be
000002d0: fc4e 51bd 76cd 82be 5c8c a0be 59f5 e5bd
000002e0: f6fb 01be 5c87 26be 1e97 e4bd 8b80 6abe
000002f0: 9799 1bbe 888e 2dbd 21d1 333b 6d52 35bd
00000300: be59 b73e 205f 133d f4d9 353e 252f cdbd
00000310: bd35 143e 2059 a53d 97e3 89be a0da 863d
00000320: 2557 6fbe 0382 61be a374 85be 1ec9 bf3d
00000330: ddb7 703e 734c 8a3d 28c9 583e d2da 8b3e
00000340: 1c51 b73c ec1a a0bd bb92 9ebe 21da bf3d
00000350: 4f51 83be 79f1 9b3d 1e08 b03e dca0 7ebe
00000360: 9650 3ebe 5be3 15be 6ea7 fc3e 9896 cabe
00000370: 229c e1bd 232d 9e3e 1bc5 ecbc b17b 713e
00000380: e2a4 e0bd 8079 dc3e 048a 8dbe 17bb d43d
00000390: 6a6c 313e 3fcc 1b3e d1af 38be c568 b83e
000003a0: c67e 3ebd e6d8 c3bb 22ca 9cbd a8e5 973e
000003b0: 82ca 953e 8d16 54bd 5760 843d 6c73 93bc
000003c0: a6d6 9abc 4402 07be cce4 84bd 6efa ae3d
000003d0: 2d32 f53d 0e2f 7dbe f137 323e 4e39 23bb
000003e0: 564a 593e 3777 853e e2ca f8bd 793d 693e
000003f0: 9ea2 0abd 9a5e 68be 240a c53e b7d7 1a3e
0.26827538 -0.3837547 -0.21206817 0.21044001 0.21462551 -0.09100403 -0.12933508 -0.12011185
0.03286359 0.2775679 -0.009828879 -0.106670074 0.078328 -0.037704237 -0.035354804 -0.14276311
0.0033250302 0.33852598 0.03328542 0.018022778 -0.1535078 0.23493588 0.0150075 -0.4283737
-0.39634034 0.23433402 0.1307011 0.24715468 -0.23907734 -0.09902826 -0.111447126 -0.0006194785
-0.29830763 -0.20182768 -0.22441232 -0.2971026 0.0945582 0.21193525 -0.26423684 0.1993081
0.22777739 0.13197064 -0.21847416 -0.23803492 0.0007519948 0.5459323 -0.072387144 -0.28786588
-0.2050523 0.11447565 0.25349215 -0.22022194 0.0702563 0.2725687 -0.017077561 0.049093656
-0.08555185 -0.00953697 -0.07452222 0.30013758 0.50730217 -0.043485887 -0.25770506 0.005965188
0.065682724 -0.34979394 0.2797112 -0.29400727 0.15591681 0.35509697 -0.13428068 -0.16971341
-0.11269006 -0.31406906 0.32276186 0.27507043 -0.1325416 -0.40741432 0.072762325 -0.27660134
-0.11570975 -0.26717275 0.34078923 -0.1278369 -0.33997813 0.23691994 -0.06988113 0.07335335
0.1730082 -0.03269951 -0.08599793 0.28693998 -0.16534449 -0.18804207 -0.04241393 0.035800833
-0.14516158 -0.10234001 0.057289995 -0.13807338 0.015389984 0.20667884 -0.21095128 -0.2233659
0.13062376 -0.31998283 0.08931705 0.17917533 -0.34440383 -0.24236941 -0.32274613 -0.2484751
0.3751413 0.20691563 0.10478387 0.36724067 0.08716071 -0.22820735 0.04746751 -0.13395193
0.17256106 -0.111783214 0.3213315 0.17550944 0.27314085 -0.2611871 0.19389349 0.24666065
0.038683 -0.14946325 0.12882833 0.03434445 -0.12340622 -0.026422776 0.4233904 -0.23945196
-0.0063488097 0.1131512 0.12791137 -0.29143927 -0.19349459 -0.13172589 -0.12898228 0.22076875
-0.025307156 0.042102307 -0.14764652 -0.071109705 0.13676228 -0.02292598 0.13415828 0.54170895
0.2879345 -0.15055789 0.07276325 -0.08216089 0.25358027 -0.077384606 0.04038049 -0.13535161
-0.15738434 -0.059498325 0.15230602 -0.15636253 0.21903977 -0.08103296 0.07108973 0.19113727
-0.23326522 -0.2937346 -0.045941353 -0.12813264 -0.34307313 -0.14441009 0.0068145175 0.015990332
0.38142544 -0.40341505 -0.21832147 -0.18787214 -0.051100716 -0.2554738 -0.31357086 -0.11228437
-0.12693772 -0.16262573 -0.11161636 -0.22900598 -0.15195309 -0.042372257 0.0027437883 -0.04426806
0.35810655 0.03597939 0.17758924 -0.10018758 0.14473625 0.0807364 -0.2693145 0.06584668
-0.23373087 -0.22022252 -0.2606555 0.09364532 0.23507638 0.06752863 0.21170485 0.27315384
0.022377543 -0.07817635 -0.3097132 0.09367777 -0.2564797 0.07614417 0.34381193 -0.2486605
-0.18585429 -0.1463751 0.4934649 -0.3956802 -0.11016108 0.30893812 -0.028902581 0.23582341
-0.10968949 0.43061447 -0.2764436 0.10387247 0.17326513 0.15214632 -0.18035819 0.36017433
-0.04650762 -0.005976784 -0.07655741 0.296674 0.29256064 -0.05177932 0.06463688 -0.017999373
-0.01890118 -0.13184458 -0.06488952 0.085438594 0.11972461 -0.24724981 0.17404152 -0.0024905982
0.21219763 0.26067516 -0.12148072 0.22777356 -0.03384649 -0.22692338 0.384843 0.15121351

bias f4 [10]
00000000: f964 463a 9bc4 07be bb32 dd3d 7c00 613d
00000010: 42c5 2c3e cdbe cbbd 6b11 fcbd 74da 4c3e
00000020: 252d 68be ec23 783d
0.00075681467 -0.13258593 0.10800692 0.054932103 0.16872123 -0.09948502 -0.1230801 0.20005208
-0.22673471 0.060581133
