models/Mnist-alpha0.1-ratio0.5/server.pt (torch, 114031 bytes, 16 tensors)

weight f4 [6, 1, 3, 3]
000000 2a 66 e7 bc ce ee 21 3e 70 4a 94 be 7e 36 86 be
       -0.028246958 0.15813753 -0.2896304 -0.2621345
000010 a9 d4 13 be ef 44 8d 3d e0 6c 04 bd 9a 4b 6e 3e
       -0.14436592 0.06897914 -0.032330394 0.23271027
000020 84 b1 6d bd e9 5b a6 3d 41 f1 da bd ea d9 87 bd
       -0.05803062 0.08122999 -0.10690547 -0.06633361
000030 1a bc a5 be dd 04 66 be 52 5d 0e be 9a ff 51 3b
       -0.32370073 -0.22462793 -0.13902786 0.003204322
000040 8c df f9 3d f0 c2 43 3e 33 6a 61 be 6d 69 03 be
       0.12200841 0.19117332 -0.22013168 -0.12833185
000050 32 27 0c 3e 1c 68 8d 3e 4b 28 72 bd d3 3b 82 3e
       0.13686827 0.27618492 -0.059120458 0.25436267
000060 0b c3 4d bd e3 2d 36 3d a1 e1 9b 3e 52 ff 9e be
       -0.050234836 0.044477355 0.3044558 -0.3105417
000070 d6 8a 56 be f2 77 af bd 21 14 05 be c0 72 94 3e
       -0.20951399 -0.085678 -0.1299596 0.28993797
000080 4c ab 5b be 18 4e 1e be 9d ae 6c be 4a 18 9f be
       -0.21452063 -0.15459478 -0.23113485 -0.3107322
000090 e7 e0 59 be c0 cb 84 3e b2 e2 04 3e 05 bc 08 3e
       -0.212772 0.259367 0.12977102 0.13352974
0000a0 c6 25 e4 bb e0 97 3e be b0 3a 0b 3d 9d bd a7 be
       -0.0069625108 -0.18612623 0.033991516 -0.3276185
0000b0 bc 67 82 be c5 1e 28 be 66 d3 5b 3e b2 72 4a 3e
       -0.25469768 -0.16417988 0.21467361 0.19770315
0000c0 2f 91 0f be 36 71 a4 bb 44 ae 5e 3e 28 8d a8 3e
       -0.14020227 -0.0050183786 0.21746165 0.32920194
0000d0 88 b5 0b 3e 47 79 4f 3d
       0.13643467 0.05065277

bias f4 [6]
000000 fe db 64 3e 54 fa 48 be f9 6b 7e 3d 9e 51 84 be
       0.22349545 -0.19626743 0.06211469 -0.2584352
000010 cc 92 6c be c5 53 30 be
       -0.23102874 -0.17219456

weight f4 [6]
000000 94 17 7f 3f db ee 7e 3f b2 37 81 3f 0e 1c 81 3f
       0.9964535 0.99583215 1.0095122 1.0086687
000010 86 19 7e 3f 26 26 7f 3f
       0.99257696 0.99667585

bias f4 [6]
000000 22 0a e9 3a a4 9b ff ba c0 ac 27 3c ce c5 47 3c
       0.0017779509 -0.001950134 0.010234058 0.012193156
000010 0f cb 94 3a 3a 2e 38 3b
       0.001135202 0.0028103725

running_mean f4 [6]
000000 00 00 00 00 00 00 00 00 00 00 00 00 00 00 00 00
       0.0 0.0 0.0 0.0
000010 00 00 00 00 00 00 00 00
       0.0 0.0

running_var f4 [6]
000000 00 00 80 3f 00 00 80 3f 00 00 80 3f 00 00 80 3f
       1.0 1.0 1.0 1.0
000010 00 00 80 3f 00 00 80 3f
       1.0 1.0

weight f4 [16, 6, 3, 3]
000000 98 21 80 3d 34 c4 67 3d 8c bd a0 bd c3 4d 2e 3d
       0.062564075 0.0565836 -0.07848653 0.042554628
000010 3c c8 9a 3d dd a0 85 bc ed 01 27 3b 47 e0 f0 3c
       0.07557723 -0.016312057 0.0025483326 0.029403819
000020 3d 80 aa 3d bb a9 06 3e 04 0b d2 bd 2b 05 46 bd
       0.08325241 0.13150685 -0.10256007 -0.048344772
000030 3b d1 5a 3d ae dd e8 3d 0c 1c f4 3d 5b 26 f1 3d
       0.053422194 0.11370407 0.11919412 0.11774894
000040 e3 8a d3 3c 2a 87 f3 bd 7d 1f 9f 3c 49 37 a1 bd
       0.025823062 -0.11891015 0.019424194 -0.07871873
000050 3f c1 f8 bd 78 99 07 3e 36 73 de 3d 82 ec 05 be
       -0.12146234 0.13242137 0.108618185 -0.13078502
000060 38 19 0a 3d 8e af 94 bc 6b 36 88 bc 33 93 80 bd
       0.033715457 -0.018150117 -0.016627511 -0.06278076
000070 59 c2 5b 3d 2c cb a2 bd d8 7d 45 3d 03 50 8c 3d
       0.05365214 -0.07948908 0.048215717 0.068511985
000080 2b e6 c6 3d 9a ee 48 3d 25 23 0c be 6a ed ba bd
       0.0971187 0.049055673 -0.13685282 -0.091273144
000090 fe 14 90 3d 84 85 f0 3c 22 ff d6 bd 89 a2 a4 bd
       0.07035254 0.02936054 -0.104978815 -0.080388136
0000a0 75 07 01 3e 04 48 b5 3d a0 a7 72 bd 6c a0 07 bd
       0.12600501 0.088516265 -0.05924189 -0.033111975
0000b0 a7 80 03 be b3 c0 8b 3b b4 09 c7 bd cc 0d cb bd
       -0.12842046 0.004264915 -0.097186476 -0.09914741
0000c0 62 77 a2 3b d3 1f ce 3c e6 73 4e bd f1 5d bf 3d
       0.004958079 0.02516166 -0.050403498 0.0934409
0000d0 b9 ab 9f bd 87 39 03 3e 8b 8e bb 3d c4 f8 ec bd
       -0.07796425 0.12814914 0.09158047 -0.11570886
0000e0 fb de 0e bd 51 c3 a1 3b 18 78 86 3c ec 9a e5 3c
       -0.03488062 0.0049366136 0.016414687 0.028027974
0000f0 2d 31 59 3d 02 62 e4 3b 2e ba 88 bd 65 0b 81 3d
       0.053025413 0.0069696913 -0.06676136 0.063010015
000100 e1 10 05 be c3 5b a3 bd 11 59 12 bd b6 2c 8a bd
       -0.1299472 -0.079764865 -0.03572947 -0.06746809
000110 9d 25 4c bd b6 2b e4 bd 45 ed e7 bc a0 51 f0 3c
       -0.04984056 -0.1114115 -0.028311381 0.029335797
000120 72 3a a9 bd 0b 75 37 bb 3e 40 dd 3d 3c c0 20 bc
       -0.08263101 -0.0027993347 0.10803269 -0.009811457
000130 16 20 2f 3c 09 2b 70 b9 c8 c8 01 3d db 11 be 3d
       0.010688802 -0.00022904215 0.03168562 0.092807494
000140 86 66 09 3e e5 26 ad 3d f5 0e 01 3e 24 ef 70 bc
       0.13418016 0.08454684 0.12603362 -0.014705453
000150 87 f8 fd bd 48 52 89 bd 3a e3 b5 3d cd 81 28 bb
       -0.124009185 -0.06705147 0.08881231 -0.0025712133
000160 45 a5 92 bd 8f 7b df bd 23 9b 01 be 66 ff e9 bd
       -0.07160429 -0.10912239 -0.12656836 -0.114256665
000170 33 d5 e8 bc 85 5e 9b 3d d4 cf 91 3d 20 d0 05 be
       -0.028421974 0.075863875 0.07119718 -0.13067675
000180 f3 9e ac 3d 76 e9 d7 bd a4 9f e0 bc c0 98 47 bd
       0.08428755 -0.10542576 -0.027419873 -0.048729658
000190 38 dd b1 bc d3 c6 8a bc d0 d4 ed bd 7e ec e5 bd
       -0.02171193 -0.01694051 -0.116128564 -0.11226748
0001a0 a9 0f 27 bc 6f 10 c9 3b 37 10 6a bd 70 32 76 3d
       -0.010196605 0.0061359922 -0.05714437 0.060106695
0001b0 85 2d f1 bd 56 e0 06 bc ee e0 f3 3d 02 99 5e bd
       -0.1177626 -0.008232197 0.11908136 -0.05434514
0001c0 20 2e f4 3d 9a 12 34 3d 26 fb f8 bd eb 9a a5 3d
       0.1192286 0.043963052 -0.12157278 0.08086189
0001d0 9c db b8 bc 8c f4 67 bd 40 2a e1 3d 78 5a e0 bd
       -0.022565655 -0.056629702 0.10994387 -0.109547555
0001e0 d2 b7 83 3c b6 30 f9 bc ad 77 bf 3d f5 1e 1e 3d
       0.016078863 -0.030418735 0.09348998 0.03860374
0001f0 32 0f 7b 3d 8b 29 2a 3d 2e ba c8 bc ea d7 22 bc
       0.06129379 0.041543525 -0.02450284 -0.009939173
000200 97 6e be bd 22 4f b0 3d ce 96 fe 3d 6f 60 e9 3d
       -0.09298437 0.086088434 0.124311075 0.113953464
000210 d7 86 a6 bd e7 36 b3 3c 7f 15 a7 bd 6e c9 95 bd
       -0.081311874 0.021876765 -0.08158397 -0.0731381
000220 84 9f a6 bd 41 a7 21 3d 12 f5 a4 bd c5 a9 0b bc
       -0.08135894 0.039466146 -0.08054556 -0.008524363
000230 aa ed 78 bb fe 17 b0 3d 86 0a df bd 53 76 cd bd
       -0.0037983456 0.08598326 -0.10890679 -0.10032334
000240 3c 5f a5 bd 68 9c ba 3d d4 4f 4f bd 26 97 e3 3d
       -0.08074805 0.091118634 -0.05061324 0.11112814
000250 3f 1a 4d 3d 7a df 94 3c 3d d5 c6 ba a9 d5 d6 bc
       0.05007386 0.018172968 -0.0015169751 -0.026224928
000260 95 db 9f 3c a9 e7 f7 bc 36 72 66 3c ac 21 0e 3d
       0.019513885 -0.030261831 0.014065316 0.03470008
000270 bc 3c c4 bd 05 f1 60 bd fd 11 06 3e 66 e8 c3 bd
       -0.09581897 -0.054917354 0.130928 -0.09565811
000280 ff 20 c8 3b dc a8 1c 3e e0 c4 46 3d 46 d6 fb 3a
       0.006107449 0.1529879 0.0485276 0.0019213639
000290 d1 76 f4 bd dd 9e 88 3d 5a 39 c9 bd ee c0 20 bd
       -0.11936725 0.06670926 -0.09825392 -0.039246492
0002a0 c1 f0 41 bd 99 39 ba bc db 9a 9d ba b3 6d e5 3d
       -0.04734874 -0.022732543 -0.00120243 0.11202564
0002b0 2b a1 7b 3c fc ef f7 3d ee b2 a6 3d 30 f5 b1 bd
       0.01535825 0.1210632 0.08139597 -0.08689344
0002c0 25 d0 74 3d e4 95 c7 bd 88 56 73 bd 64 bb 17 3d
       0.059768815 -0.09745386 -0.059408695 0.037043944
0002d0 b1 fe 68 3d ee 39 dd 3d 48 96 13 bd 67 04 3d 3c
       0.056883518 0.10802065 -0.03603199 0.011536694
0002e0 7e 2a 9c 3d de d2 f8 bd 0c 1f da 3d 16 17 d7 bd
       0.07625292 -0.12149595 0.10650453 -0.1050245
0002f0 6e a5 f6 3b 0d 92 d3 bc 9a 77 99 bd 51 4a 65 3c
       0.007527045 -0.025826478 -0.07493515 0.013994769
000300 b8 fe de 3d e7 89 37 bd 7b e7 ad bd d8 ac 60 bd
       0.108884275 -0.04480925 -0.08491417 -0.054852337
000310 09 41 0f be 76 6b 6f 3d 42 13 88 bd 61 86 b7 bd
       -0.13989653 0.058452092 -0.06644298 -0.089611776
000320 d4 18 9e bd d7 d4 a0 3d 5a 01 98 3d bb 5b d6 3d
       -0.07719579 0.07853096 0.07422133 0.10466715
000330 21 33 52 3d e1 10 33 bd 11 41 18 bd 42 8b 4d 3d
       0.05131829 -0.04371727 -0.037171427 0.050181635
000340 11 c7 f6 3d bb 11 32 3d 2f 6c 4d bd 33 61 69 bd
       0.12049688 0.04347394 -0.050152 -0.056977462
000350 79 04 f2 bd 0c be 2f 3d 45 b5 8e bd ae 44 e6 bd
       -0.11817259 0.042905852 -0.06968168 -0.11243568
000360 93 3b f2 3d 4e 76 b3 bd 72 bd 59 bc 76 26 0e 3d
       0.11827769 -0.08762799 -0.013289796 0.034704648
000370 03 fa 31 3b 21 18 b9 bd 7e 63 e5 bd 18 79 d8 3d
       0.0027157075 -0.09037805 -0.11200617 0.10569972
000380 fe 44 a4 3c 79 07 e6 3d 0d a8 33 bd c2 ca 31 3d
       0.02005243 0.11231894 -0.043861438 0.043406256
000390 d9 9c 09 bd 74 19 c4 bb 90 69 a8 bd ff f4 38 3d
       -0.033596847 -0.0059844796 -0.082232594 0.04515552
0003a0 09 fb 2e 3d 3e 55 9e bb ca 90 d9 bc 6d 82 99 bd
       0.042719875 -0.004831939 -0.026558299 -0.0749558
0003b0 e8 d9 ca 3d 92 90 c4 bd 8e 7d 8b 3d d9 32 f2 bc
       0.099048436 -0.09597887 0.06811057 -0.029565262
0003c0 3b 53 6e bd 1f e9 1d 3d bc 8c 5f bd a1 50 e6 3c
       -0.058184844 0.0385524 -0.054577574 0.028114619
0003d0 43 b8 c5 3c 25 79 ce bd 01 89 9e 3c 85 c6 57 3d
       0.024135714 -0.100817 0.019352438 0.052679557
0003e0 cd bf 4d 3d ad 10 af bc 30 8f ee bd 11 9d d3 bc
       0.050231744 -0.021370256 -0.116484046 -0.025831731
0003f0 22 a0 3e 3d d2 34 50 bd 32 8c 49 3d a5 a4 bc 3d
       0.046539433 -0.050831623 0.049205966 0.09211091

bias f4 [16]
000000 86 44 b2 3d 02 24 fc bd 36 94 53 3d 8c 9e d9 bd
       0.08704476 -0.123115554 0.051655017 -0.106259435
000010 4e 0f d3 3d bc e7 2e 3d 47 c9 09 3e 92 65 09 be
       0.103056535 0.042701468 0.13455687 -0.13417652
000020 d2 25 06 be 8d 6d bc 3d 1f 6f f7 3d 9d c0 aa 3d
       -0.13100365 0.09200583 0.120817415 0.08337519
000030 52 49 b9 3d 2a bd ea bd 9f b9 c9 3d d4 90 03 be
       0.09047188 -0.114618614 0.098498575 -0.12848216

weight f4 [16]
000000 a8 7c 81 3f da 8d 81 3f a6 18 82 3f 5e c9 81 3f
       1.0116167 1.0121415 1.0163772 1.0139577
000010 1b a0 81 3f c2 1e 83 3f ca f2 82 3f 29 13 81 3f
       1.0126985 1.0243762 1.0230343 1.0083972
000020 3e 44 82 3f bc 2e 83 3f 3d 0c 82 3f a1 a1 82 3f
       1.0177076 1.0248637 1.0159985 1.0205575
000030 b2 f0 82 3f 66 43 81 3f f6 e8 81 3f b4 3f 81 3f
       1.0229704 1.0098693 1.0149219 1.0097566

bias f4 [16]
000000 66 a1 47 3c da da 36 3c 5b 43 3c 3c 5b 25 56 3c
       0.0121844765 0.011160577 0.011490668 0.01307043
000010 ca c1 f3 3b 8e 65 67 3c c6 a5 42 3c 22 08 3a 3c
       0.007438873 0.014123334 0.011880344 0.011354478
000020 a7 9e 43 3c 87 d8 58 3c a7 b4 4a 3c f0 ad 36 3c
       0.011939681 0.013235218 0.012372172 0.011149868
000030 81 b1 58 3c e5 4a 6b 3c 84 76 87 3c ce eb 6d 3c
       0.013225914 0.014361118 0.016536005 0.014521552

running_mean f4 [16]
000000 00 00 00 00 00 00 00 00 00 00 00 00 00 00 00 00
       0.0 0.0 0.0 0.0
000010 00 00 00 00 00 00 00 00 00 00 00 00 00 00 00 00
       0.0 0.0 0.0 0.0
000020 00 00 00 00 00 00 00 00 00 00 00 00 00 00 00 00
       0.0 0.0 0.0 0.0
000030 00 00 00 00 00 00 00 00 00 00 00 00 00 00 00 00
       0.0 0.0 0.0 0.0

running_var f4 [16]
000000 00 00 80 3f 00 00 80 3f 00 00 80 3f 00 00 80 3f
       1.0 1.0 1.0 1.0
000010 00 00 80 3f 00 00 80 3f 00 00 80 3f 00 00 80 3f
       1.0 1.0 1.0 1.0
000020 00 00 80 3f 00 00 80 3f 00 00 80 3f 00 00 80 3f
       1.0 1.0 1.0 1.0
000030 00 00 80 3f 00 00 80 3f 00 00 80 3f 00 00 80 3f
       1.0 1.0 1.0 1.0

weight f4 [32, 784]
000000 85 5b ea 3b f3 db c2 bc db ed 6d bc 40 e0 c7 3b
       0.0071520233 -0.02378652 -0.014522041 0.0060997307
000010 56 f6 68 bc 25 33 c3 bb 6b 24 0c bd 28 eb 09 bd
       -0.014218887 -0.0059570246 -0.03421442 -0.033671528
000020 9b c0 5e 3c 15 38 68 bc 81 6a a7 bc 0c 94 8d bc
       0.013595725 -0.014173527 -0.020436527 -0.017282508
000030 4e be 01 bd 96 fe e4 bc 18 28 af 3c 27 31 85 3c
       -0.03167563 -0.027953427 0.021381423 0.01625879
000040 38 3a 58 3b 5a 1c 93 bc 49 e0 55 3c a4 2a 51 3b
       0.0032993685 -0.017957855 0.013053962 0.0031916285
000050 ac 95 d0 bc 68 d5 fb 3b 01 fc ff 3c bc ae 13 bd
       -0.025461994 0.007685352 0.031248095 -0.03605531
000060 1b 01 0e bd 26 6e 5f 3b d9 ab f0 3c 4f d8 b6 bc
       -0.034669023 0.0034092753 0.029378818 -0.02231994
000070 ba ed 00 3c fb 73 e1 3c f0 40 1e 3c 44 10 c9 3b
       0.007869178 0.027521124 0.009659037 0.006135972
000080 04 68 05 3d 3b db c4 3c 42 1f a6 bc 0d a4 4a 3b
       0.0325699 0.024030318 -0.020278577 0.0030920536
000090 d2 0d 9d 3c 46 b1 16 3d 51 c8 0a bd b7 1f 9d 3c
       0.01917163 0.036790155 -0.033882443 0.019180162
0000a0 37 64 22 bc 32 e3 12 bd f1 e2 01 3c 89 b0 aa bc
       -0.009911588 -0.0358612 0.007927642 -0.020836132
0000b0 a8 46 95 3b 13 fd bc bc 93 89 e0 bc 57 92 88 bb
       0.004555542 -0.023069894 -0.02740935 -0.0041678357
0000c0 c6 c1 55 bc 61 be a6 3c c0 58 3d 3b 18 46 e3 3c
       -0.0130466875 0.020354452 0.002889201 0.027743384
0000d0 6d 33 db 3b fa 9b 3d bc 0b e5 c4 3c 14 9a e6 3a
       0.00668948 -0.011572832 0.024034997 0.0017593526
0000e0 6c 97 d4 3b a4 0b 15 bc fe 23 57 3b 99 e4 1f bc
       0.0064877775 -0.009097014 0.003282785 -0.009759092
0000f0 88 90 ba bb f4 21 e0 bc 61 65 ea 38 43 7c f2 bc
       -0.005693499 -0.02735994 0.00011176873 -0.029600268
000100 35 c0 fd bb e4 52 a1 3c 23 68 f3 bc 42 c0 c7 bc
       -0.00774386 0.019692846 -0.029712742 -0.024383668
000110 ca ef 13 bc 85 22 22 bc f6 fa c0 3b a9 f6 c6 b9
       -0.009029338 -0.009895925 0.005889292 -0.0003794928
000120 d8 fe 9c 3c 4b 72 03 bd 22 af 8b bb 5f 45 93 3c
       0.019164488 -0.03209142 -0.004262821 0.017977415
000130 24 ed fc 3c c9 77 2a bb 0b f7 da bc 92 31 f5 3b
       0.030874796 -0.002601134 -0.026729127 0.007482716
000140 f9 2a b2 3c 43 43 d6 bc cb 57 b4 bc af a4 83 3c
       0.021749007 -0.02615512 -0.02201452 0.016069738
000150 56 7e 29 bb 94 be 10 bd c1 d2 8d bc d5 0c 9a 3c
       -0.0025862656 -0.035338 -0.01731241 0.018804947
000160 18 2e 32 bc da 35 c9 3c 5e 6d e8 3c 33 ee a2 3b
       -0.010875247 0.024561811 0.028372463 0.004972243
000170 11 a2 2e bb 32 80 2f bc 9f b4 98 ba 48 4f d5 3b
       -0.0026646892 -0.0107117165 -0.0011650509 0.006509695
000180 2e 80 df bc 86 ab 0a bc 9f 25 f7 bc e5 c1 ab 3c
       -0.0272828 -0.008463746 -0.030169306 0.02096648
000190 6a 5b c1 bc 1e 41 02 3d 23 77 25 bc c5 44 af bc
       -0.02360316 0.03180038 -0.010099205 -0.021395097
0001a0 5f b5 84 3c 7f 20 98 3b 6f 05 d5 3c 82 c3 97 3c
       0.016199766 0.0046425457 0.026003568 0.018525843
0001b0 07 24 1e bd 75 cd 93 3c bd cc d0 bb e1 bb 80 bc
       -0.038608577 0.018042305 -0.006372063 -0.015714588
0001c0 60 86 b7 3c 47 e0 ea 3c 77 df f3 bc 41 3a 0b bb
       0.022402942 0.028671397 -0.029769642 -0.0021244439
0001d0 71 21 04 3d 9e 44 5b 3c 03 a6 f9 3c ae c7 53 bc
       0.032258455 0.013383059 0.030474668 -0.012926025
0001e0 55 6a bb bc fc 3c 11 3d f3 48 27 3c 23 90 18 3d
       -0.022877852 0.03545855 0.010210264 0.037246834
0001f0 65 95 9e bc 45 d3 bf bc 1c e7 9d bb 89 02 17 bd
       -0.019358346 -0.02341617 -0.00481881 -0.036867652
000200 43 2c 39 3c d2 1d ca 3c 4d 7c 2a 3c cc ed 88 bb
       0.011302057 0.024672423 0.010405612 -0.004178738
000210 bc 8c 89 3c 21 ff bd bc ac 0e 19 3d 0a 3d 12 bd
       0.01679074 -0.023192944 0.037367508 -0.035702743
000220 9b dd 11 bd 4e 5d ef bb 40 e2 ed 3c 50 0e 61 3b
       -0.03561173 -0.007304824 0.029038548 0.0034340806
000230 0a 3e 54 3c 78 d4 d2 bc 92 7a 78 3c 2a 6c 5a bb
       0.012954244 -0.025736079 0.015165942 -0.003332863
000240 df 5f 62 3c 10 76 ce 3c 67 4a 7e 3c 73 5b 83 bb
       0.013816803 0.025202781 0.015520669 -0.0040087043
000250 8f 93 23 bb af 15 ba bc 38 70 59 bc d8 20 bb 3c
       -0.0024959778 -0.022715418 -0.013271384 0.02284281
000260 4a 0a 6f bc e3 42 b3 3c 68 94 6a bc 21 6b 08 bc
       -0.014589855 0.02188248 -0.014317609 -0.008326323
000270 70 14 44 3a e2 de 06 bd 1e eb ce ba ce fe ae bb
       0.0007479852 -0.0329274 -0.0015786623 -0.0053404337
000280 f4 ca 48 bb e4 85 f2 bb da fe e9 3c 20 fb ed 3c
       -0.0030638548 -0.007401215 0.028563906 0.02905041
000290 77 05 cf bc b0 c0 5b 3c 37 ce cc bc 0e b2 f2 bc
       -0.02527116 0.0134126395 -0.025000675 -0.029625919
0002a0 7c 1f 30 3c cc 6b b1 3a eb 52 a1 bc 84 02 11 bd
       0.010749694 0.0013536154 -0.019692859 -0.03540279
0002b0 15 fa 89 bc 7a 07 54 3c dd 50 0e bd 21 e5 0e bd
       -0.016842881 0.012941236 -0.034745086 -0.034886483
0002c0 36 ae 94 3b 6d a4 f5 bc 00 02 00 bd 1e 26 3d bc
       0.004537369 -0.02998563 -0.031251907 -0.011544732
0002d0 44 22 18 bc 37 4e 09 bd 5c 5b c5 bc 6b f3 14 3b
       -0.009285513 -0.033521857 -0.024091415 0.0022728096
0002e0 0b a2 0d bd f6 4f f6 bb e2 bf ad bc af 7d d2 bc
       -0.034578364 -0.0075168563 -0.02120966 -0.025694696
0002f0 1f c5 67 3c ba 80 e2 bc 2f f1 da bc f4 ac 9e 3c
       0.014146118 -0.027649272 -0.026726333 0.01936958
000300 4e 4b 05 3c a4 13 11 3d 01 db 15 bc 00 41 8d bc
       0.00813563 0.03541912 -0.009146453 -0.017242908
000310 91 9c 58 bb 84 58 90 38 7a 7d de 3c 78 f6 11 bd
       -0.0033052305 6.8829424e-05 0.027159441 -0.03563544
000320 94 2d 25 bb de f1 80 3c bb 07 a2 bc e0 aa 94 bc
       -0.0025204169 0.015740331 -0.019779077 -0.018147886
000330 36 8f 8e 3c b4 de 05 bd 01 a3 20 3c 71 8f ea bc
       0.017402273 -0.03268309 0.009804488 -0.028632851
000340 34 19 8f 3c 18 56 f5 bc d2 1c b4 3c 41 cb fe bc
       0.017468072 -0.02994828 0.021986399 -0.031102778
000350 0f a3 ea bc f2 eb 8a b9 2b 29 00 3d 26 62 f2 bc
       -0.028642206 -0.00026497204 0.03128926 -0.029587816
000360 22 9f 76 bc e3 26 01 3d d1 e6 cb bb da a8 43 3c
       -0.015052589 0.031531226 -0.006222584 0.011942113
000370 0c 0d 0e bd 0a a3 bb bb fb 30 b0 bc 5b 8b f3 3c
       -0.03468041 -0.005726223 -0.02150773 0.029729536
000380 1c 1c 73 3c b7 94 f1 bc 58 a6 ca 3b c6 33 ed bb
       0.014838245 -0.029489858 0.0061843805 -0.007238838
000390 91 3d 76 bc 93 e4 bc bc a0 99 4d bc 4c c9 e7 3c
       -0.015029327 -0.023058211 -0.012548834 0.028294228
0003a0 be a2 e7 bc 14 28 e7 bc bf 82 0b bc b3 4c a5 3a
       -0.028275844 -0.028217353 -0.008515059 0.0012611359
0003b0 1c 74 2b 3c a4 5c 98 3a db fb 0b bc b0 a1 b0 bc
       0.010464694 0.0011624289 -0.008543934 -0.021561474
0003c0 07 2c a0 bb 9d ca 43 bc 6d 00 f0 3c 8e 37 0e bd
       -0.004888061 -0.011950162 0.029297078 -0.03472095
0003d0 3e 4d bb bc 80 08 ee bc 07 98 e0 bb 2f 1e e2 3c
       -0.02286398 -0.029056787 -0.0068540606 0.027602283
0003e0 bd ed ff 3c 74 0c ff bc 82 4a ec ba 90 32 a9 3c
       0.031241292 -0.031133868 -0.0018027576 0.020653993
0003f0 fa f6 80 3c aa 5f f2 3c af 92 df 3a 6a b0 b8 bc
       0.015742768 0.029586632 0.0017057265 -0.022545058

bias f4 [32]
000000 2c 5c ec bc 45 f6 e5 3b 60 ab 08 3c 8d e8 bc 3c
       -0.028852545 0.007017883 0.00834164 0.023060108
000010 1f 5e 02 3d 91 6b 0d bd 15 77 c7 bc 39 ac 01 bd
       0.031828042 -0.03452641 -0.024348775 -0.031658385
000020 d4 18 fe 3c 20 30 94 bc 6e c3 95 bc 7b 08 26 bc
       0.031017698 -0.018089354 -0.018281665 -0.010133858
000030 b6 db 89 bb b6 23 24 3c ba e0 8a bc d0 b0 47 3c
       -0.0042071 0.01001828 -0.016952861 0.0121881515
000040 fd 89 ea 3c 0e 31 10 bc 2c 1f 84 bb 27 8d 4a 3c
       0.028630251 -0.008800758 -0.0040320363 0.012362755
000050 13 e0 47 bc 07 e5 36 bc f2 4d 0f bd 70 f0 1d b9
       -0.01219942 -0.011163003 -0.034986444 -0.00015062257
000060 73 e1 f3 bc 7e 40 06 bb 2f 22 0b bd 02 cc bd bc
       -0.029770589 -0.0020485218 -0.033968147 -0.023168568
000070 5d 18 18 3d 09 1b dd bc 16 48 af 3c 07 e7 eb bc
       0.03713261 -0.02699043 0.021396678 -0.028796686

weight f4 [10, 32]
000000 06 fa 3a be 95 f9 f8 bd ac d2 14 be 3d 37 7f bd
       -0.18259439 -0.12156979 -0.1453349 -0.06230854
000010 8e 1b a0 bc 1d 8a c1 bd 4a 8b 36 be 1d 70 94 bb
       -0.01954439 -0.09450171 -0.17826572 -0.0045299665
000020 82 c5 e9 bc ba c2 33 be da 6a 75 bb 75 04 dc 3d
       -0.028536562 -0.17554751 -0.0037447722 0.107430376
000030 5e c2 2b be b6 7c 8f 3d 51 a6 40 be cd 53 37 3d
       -0.16773364 0.070062086 -0.18813445 0.044757653
000040 eb ca e5 bd 87 7d 32 3c 50 f7 14 be 3f aa 15 3e
       -0.11220344 0.010894186 -0.14547467 0.14615725
000050 75 d4 ee 3c cc f1 16 3a 92 65 1e 3b f3 e1 41 be
       0.029154042 0.00057580764 0.0024169427 -0.18933849
000060 ca 1f 27 3e 11 e7 43 3e 96 17 ba 3d 7c 3d 1a be
       0.1632072 0.19131114 0.0908653 -0.15062517
000070 9b c2 ab 3d fd 12 bc bd 0a 24 b2 3d 2d df 2f be
       0.083867274 -0.09183309 0.0869828 -0.17174979
000080 00 73 bd bd ca 4c df bd 54 88 1b be 6c a3 2f 3d
       -0.0925045 -0.10903318 -0.15188724 0.04288046
000090 cd a6 28 3d 86 cd 73 3d ef c3 2b 3d 97 5f b1 ba
       0.0411747 0.059522174 0.041934904 -0.0013532516
0000a0 f6 f1 d3 3d 5c 16 29 3e f3 e2 1f 3e d7 8d 28 3e
       0.10348885 0.16512436 0.15613918 0.16460358
0000b0 69 e1 ed bd 94 f3 a6 3d 8e 37 6a 3d c2 d8 a1 3d
       -0.11615259 0.081519276 0.057181887 0.079026714
0000c0 a9 73 c7 bd 1a d9 24 be 8d c7 e5 bd 00 c9 29 be
       -0.09738857 -0.16098443 -0.11219702 -0.16580582
0000d0 b2 5f f5 bd a3 fc 08 bd 86 6a 0a 3e fd 31 08 be
       -0.11981143 -0.03344406 0.13517198 -0.13300319
0000e0 38 e4 3e be 78 fd 80 3d 2f 57 12 3e f6 fc 01 3d
       -0.18641746 0.06298345 0.1429107 0.031735383
0000f0 be bc ae bd fb bd 0b 3e f2 71 91 bd 2c 4d 39 3e
       -0.085320935 0.1364669 -0.071018115 0.18095845
000100 cc 52 fa 3b 65 1f 98 bd 17 f7 2a be 6f ba 3d bd
       0.0076392647 -0.07427863 -0.1669582 -0.046320375
000110 74 4a 3f be 21 64 77 3d 16 cb 25 3e 93 16 3c be
       -0.18680745 0.060398225 0.16190752 -0.18367986
000120 56 78 24 3d fa 5a fd bc 61 4a ee bd 69 09 31 bd
       0.040153824 -0.03092717 -0.116352804 -0.043221865
000130 7d e9 28 be 8c a0 2f bc 7e b5 c7 3d 6d 0e e3 3d
       -0.16495319 -0.01071943 0.09751414 0.11086736
000140 13 b4 f5 3d 1b 70 9b 3d 51 61 3b be 94 b4 2d 3e
       0.11997237 0.07589742 -0.18298842 0.16963416
000150 3d 33 3b be 70 9a 2d 3d 78 11 9c 3d 48 2a 81 3d
       -0.18281265 0.04238361 0.076205194 0.06306893
000160 b7 bf 73 bd 07 12 32 be 3a ae e8 3d 72 01 ed bd
       -0.059509005 -0.1738969 0.11361356 -0.11572541
000170 ef be 03 3e 8f df 85 bd bd af 88 3d d8 fd 95 bd
       0.12865804 -0.06536781 0.066741444 -0.073238075
000180 9b 6f f4 3d 34 8e 09 3d 35 19 89 bc 93 ce 02 be
       0.119353496 0.03358288 -0.016735652 -0.12774114
000190 a9 37 5c bd 3a 1e 11 3e 4b ad 24 bb b4 49 5e bd
       -0.05376402 0.14171687 -0.0025127705 -0.054269508
0001a0 2c f4 d3 bb 2f 14 78 bd 64 5f ee 3c 75 2f 0e 3e
       -0.0064683165 -0.060566124 0.02909822 0.13885291
0001b0 24 5b cb 3d 03 10 24 3e 09 5a d6 3d ca 83 36 bc
       0.09929493 0.16021733 0.104663916 -0.011139819
0001c0 9a f6 09 be a0 13 1e be b8 b7 dd 3c 5c 8a 05 3e
       -0.13472977 -0.15437174 0.027065143 0.13041061
0001d0 28 f3 32 3e 61 fa 36 3e df 57 6f 3d 5d 25 01 be
       0.17475569 0.1786895 0.05843341 -0.12611909
0001e0 8b a9 0d be 2a 91 cd 3c 9d c0 11 bd f3 cd 49 3c
       -0.13834207 0.025093634 -0.03558408 0.0123171685
0001f0 e2 16 25 bc 5e 9f 01 bd 91 ea 35 bd e4 11 0f 3e
       -0.0100762565 -0.031646125 -0.044413153 0.13971668
000200 47 da 14 bd 6c 61 98 bd e6 51 f1 3c 21 c4 3a 3c
       -0.036340978 -0.07440457 0.029457998 0.0113993
000210 38 17 02 be af 75 96 3d c3 c0 b4 bd 63 fb cb bd
       -0.1270417 0.07346665 -0.08825829 -0.099600576
000220 d2 0c 3e be b1 34 48 3d b7 5d 01 3e 62 78 da bd
       -0.18559578 0.048878375 0.12633406 -0.106674924
000230 ea 5c e8 3b 31 55 e4 3a 7d 15 bc 3c ef 11 05 3e
       0.0070911543 0.0017420409 0.022959465 0.12995122
000240 69 57 78 ba c2 a2 2e 3e 80 2e 84 3d bc 68 81 3d
       -0.00094734743 0.17054275 0.06454182 0.063188046
000250 f8 6e a0 3c 8a a1 9a 3d 70 c7 02 3e a7 e0 03 be
       0.019584164 0.075503424 0.12771392 -0.12878667
000260 2a bd 99 3d 84 c5 3b be 2a df 03 be 71 bf 51 bb
       0.07506783 -0.18337065 -0.12878099 -0.0032004977
000270 da 5d 5c 3b 80 86 84 3d 46 97 93 3c 34 7c 87 3d
       0.0033625276 0.06470966 0.018016469 0.06615487
000280 0f af b0 3d 99 d3 2c bc cb 39 45 3e 2b 8e 4d bc
       0.0862714 -0.010548496 0.19260328 -0.0125461025
000290 8a ef 18 3a 13 53 24 3d b3 f0 1e be a4 9f c1 bd
       0.0005834034 0.04011829 -0.15521507 -0.09454277
0002a0 cb d8 d0 3d ce f2 2c 3d fb 9b 98 bb 30 f7 e9 bd
       0.101976 0.042223744 -0.004657266 -0.114241004
0002b0 a6 c6 3f be a3 b8 4b 3d 3c 98 49 3d ea aa e3 3d
       -0.18728122 0.04973663 0.049217448 0.11116584
0002c0 15 55 4e bd c1 71 9f bd 15 3e 2b be e3 ad 0b be
       -0.05037411 -0.07785369 -0.16722901 -0.13640551
0002d0 ef 0d 0b be 39 d4 77 3d aa 3e 84 bc ce 40 2d be
       -0.13579534 0.060505126 -0.016143162 -0.16919252
0002e0 10 97 c2 3d bb dd ef bc a3 f2 5e 3b ed 10 17 be
       0.09501469 -0.029280534 0.0034019134 -0.1475255
0002f0 da 99 bf 3d b8 de 37 3e 7f 56 25 3e 3a 24 25 3e
       0.09355517 0.17956054 0.16146277 0.161271
000300 25 de eb ba 4f 48 04 be 94 05 37 3d 14 50 17 bd
       -0.0017995281 -0.12918209 0.044683054 -0.036941603
000310 e7 83 dc 3c 34 c6 7c 3d aa 22 f3 3c bd 9b 7b bc
       0.026918365 0.06171246 0.029679615 -0.015356955
000320 78 3a f6 bd 5b 70 08 be d6 98 23 be 09 7f 01 3e
       -0.12022871 -0.1332411 -0.15976271 0.12646116
000330 08 bd df bd 3c e0 67 3d dd 02 f4 bd 17 cc df 3d
       -0.10924727 0.05661033 -0.11914609 0.10927599
000340 1d 50 72 bd 78 94 26 3e 60 b5 4a bd 5a 12 0d bd
       -0.059158433 0.16267574 -0.04948938 -0.03444133
000350 c0 fd b8 3d 6b 87 3b bd 1e 06 54 bd ad de 02 bc
       0.09032774 -0.04578344 -0.051763646 -0.00798766
000360 77 49 09 be b2 72 52 3d 96 76 7e bc c3 f8 27 be
       -0.13406931 0.051378913 -0.015531203 -0.16403489
000370 3d 8a 7a bd 8e f1 eb bd 6b 0d 1b be d4 4e 27 be
       -0.06116699 -0.11520682 -0.15141837 -0.16338664
000380 71 b9 ea 3d 7e c8 d1 3a 42 10 b9 bd e9 88 70 3d
       0.114611514 0.0016005186 -0.09036304 0.058724318
000390 b1 12 44 bd 04 b6 ae 3d 65 b1 cd 3d a1 73 36 3e
       -0.047869388 0.085308105 0.10043601 0.17817546
0003a0 43 05 79 bc 87 ba 84 3d 9c a1 ad bd 20 8e e3 3d
       -0.015199008 0.0648089 -0.0847809 0.111110926
0003b0 64 9a 1a 3e 1b ba ff 3d a0 cc 10 3e 04 91 c0 3d
       0.15097958 0.12486669 0.14140558 0.094026595
0003c0 ad 54 c7 3d 40 81 22 be 86 be 23 3d 60 83 11 3e
       0.097329475 -0.15869617 0.03997662 0.14210272
0003d0 2f ee 45 3d a5 ce c8 bd e6 56 04 be 57 43 28 3e
       0.048322853 -0.09805039 -0.12923774 0.16431938
0003e0 e7 5c 3b 3e 27 73 71 3d c2 e4 b0 bd 5f f4 11 be
       0.18297158 0.05894771 -0.08637382 -0.14253376
0003f0 8d c0 bc 3c 81 b0 3e bd d6 76 2d be ef aa 2a be
       0.023041034 -0.046555046 -0.16939864 -0.16666768

bias f4 [10]
000000 45 bb 10 3e ae 47 ea 3b 16 52 82 3d 79 58 f6 3a
       0.14133938 0.007149658 0.06363313 0.0018794677
000010 38 a2 0d 3e b7 78 0f 3e 19 15 29 3b d3 40 bd 3d
       0.13831413 0.14010893 0.0025799929 0.0924088
000020 a8 36 6e 3d 9f ac 9b 3d
       0.058157593 0.07601284
