models/Mnist-alpha0.1-ratio0.5/server.pt (torch, 114031 bytes, 16 tensors)

weight f4 [6, 1, 3, 3]
000000 dd 20 09 be c8 08 91 bb ee de ba be 4e 87 25 be
       -0.13391443 -0.0044260956 -0.36498207 -0.16164896
000010 2e 66 eb bd 42 0e 65 bc 64 58 15 3e b3 85 91 3e
       -0.114940986 -0.01398045 0.145845 0.28422317
000020 e4 34 c3 3c 34 30 c5 3d cd d1 b2 bd 1d d8 e4 bd
       0.023828931 0.09628335 -0.087314226 -0.11174033
000030 36 d5 a5 be 88 51 36 be ae 25 08 be 16 ec 8b bd
       -0.3238923 -0.17804539 -0.13295624 -0.06832139
000040 e5 c0 f9 3d b3 db 4f 3e b1 58 49 be bb 19 ef bd
       0.12194995 0.20298652 -0.1966274 -0.116748296
000050 21 76 a2 3d b0 f5 8e 3e 28 4f 8d 3d 0f 9e 91 3e
       0.079326876 0.2792182 0.068998635 0.28440902
000060 3a 7a 47 bd 86 0d e4 3d a3 9a 9a 3e 78 79 9c be
       -0.04870055 0.11135392 0.30196103 -0.30561423
000070 68 10 56 be 26 73 de bd 52 d2 0e be c8 94 8f 3e
       -0.20904696 -0.108618066 -0.13947418 0.280432
000080 4c ba 6b be 91 c3 27 be 0f 73 68 be ec b5 99 be
       -0.23020285 -0.16383196 -0.22700141 -0.30021608
000090 2a 10 ed bd 58 d5 90 3e 92 f7 60 3e fb 48 b0 3d
       -0.11575349 0.28287768 0.2196944 0.0860767
0000a0 04 d4 a5 3c 20 32 d4 bd f9 4f 02 be 66 1e ab be
       0.020242698 -0.10361123 -0.1272582 -0.3342163
0000b0 26 b9 8c be 4e 60 25 be 89 fc 92 3e d4 31 51 3e
       -0.27485007 -0.16150019 0.28708294 0.20429164
0000c0 f2 b0 13 be a5 ef c7 3d f5 eb 63 3e 18 55 71 3e
       -0.14422968 0.097625054 0.22257979 0.23567617
0000d0 9e 38 14 3e 1c 6b f5 3c
       0.14474723 0.0299583

bias f4 [6]
000000 fc db 64 3e 53 fa 48 be d4 6b 7e 3d a0 51 84 be
       0.22349542 -0.19626741 0.06211455 -0.25843525
000010 d9 92 6c be cc 53 30 be
       -0.23102893 -0.17219466

weight f4 [6]
000000 a8 15 7e 3f 2f c0 80 3f f9 56 81 3f 22 1e 81 3f
       0.99251795 1.005865 1.0104667 1.0087321
000010 90 04 81 3f a0 63 76 3f
       1.0079517 0.96245766

bias f4 [6]
000000 c3 c9 93 bc 8c fb 65 bc 70 7f 06 3e 61 96 dd ba
       -0.018040543 -0.014037024 0.13134551 -0.0016905778
000010 88 32 89 bc e2 7a 7c 3d
       -0.016747728 0.061640628

running_mean f4 [6]
000000 00 00 00 00 00 00 00 00 00 00 00 00 00 00 00 00
       0.0 0.0 0.0 0.0
000010 00 00 00 00 00 00 00 00
       0.0 0.0

running_var f4 [6]
000000 00 00 80 3f 00 00 80 3f 00 00 80 3f 00 00 80 3f
       1.0 1.0 1.0 1.0
000010 00 00 80 3f 00 00 80 3f
       1.0 1.0

weight f4 [16, 6, 3, 3]
000000 82 48 dd 3d 8d 22 89 3d cf 26 b2 bd fe e5 c5 3d
       0.108048454 0.06696043 -0.086988084 0.09663008
000010 c6 8a ea 3d 14 58 9f 3b 6a a2 50 3c 1e c4 4c 3d
       0.1145225 0.0048627947 0.012734035 0.04999172
000020 de 29 e5 3d e4 4a e4 3d ab 4f db bd 3b 80 5d bd
       0.11189626 0.11147097 -0.10708555 -0.05407737
000030 aa 83 b2 3a 1f b6 d4 3d 73 fd a8 3d 70 76 d4 3d
       0.0013619561 0.10386299 0.082514666 0.10374153
000040 69 7a be bc 82 5d fe bd ae 3e a9 bb dc 51 9a bd
       -0.02325173 -0.12420179 -0.0051649427 -0.07535145
000050 5f a4 d7 bd 5d 0e 04 3e 36 1c 1d 3e fa d6 02 be
       -0.10529398 0.12896104 0.15342793 -0.1277732
000060 88 7c 24 3d ab d0 c2 3c 90 5a 45 3c bc 9a a4 bd
       0.040157825 0.023781141 0.012045518 -0.08037326
000070 0e 93 44 3d c3 51 7c bd 78 b5 4b 3c 7c 18 1c 3d
       0.047991805 -0.06160141 0.012433402 0.038109288
000080 d4 6f d8 3d c2 32 20 3c 78 5b 2e be a4 73 e6 bd
       0.105682045 0.009777727 -0.1702708 -0.112525254
000090 8f 9b 44 3d 7a 06 21 bc 77 5e b4 bd ac 01 75 bd
       0.047999915 -0.009828204 -0.0880708 -0.059816048
0000a0 7a 8e b2 3d 4a e8 96 3d 5c 75 98 bc 57 33 0f bc
       0.087185815 0.073685244 -0.018610649 -0.008740268
0000b0 ea 81 e3 bd c2 18 90 bb 3b 09 25 be 8c 40 a4 bd
       -0.111087635 -0.0043974826 -0.16116802 -0.08020124
0000c0 14 2d 92 3c 01 97 1d bc 93 34 25 bd 57 67 89 3d
       0.01784376 -0.009618522 -0.04033334 0.06709164
0000d0 6c 8d f6 bc 50 c3 cc 3d bf 69 d7 3d c2 40 dc bd
       -0.030096732 0.099981904 0.10518216 -0.10754539
0000e0 ba a0 28 bd e2 ec 80 3d ff cc b9 3c cd 67 db bc
       -0.041168906 0.06295182 0.022680758 -0.026782895
0000f0 7a 31 96 3d 5c 4b 24 3c 60 ad cc bd fb 73 7a 3d
       0.07333656 0.010027733 -0.09994006 0.061145764
000100 8e 99 ea bd c0 7c ad bd 2f d8 2b bd dd 23 9c bd
       -0.114550695 -0.0847106 -0.041954216 -0.07624028
000110 de cd 90 bd 24 4f db bd 68 17 51 bd 62 1c a4 3c
       -0.07070516 -0.10708454 -0.051047713 0.020033065
000120 be fe 9d bd 0b 8b 36 bd 87 91 bc 3d ae 37 bf 3c
       -0.07714604 -0.044566195 0.09207445 0.02334198
000130 74 2e e3 3c e8 3f ad b8 54 27 98 3d a8 51 fb 3c
       0.027732112 -8.261186e-05 0.07429376 0.030678585
000140 0d 5e b7 3d f7 54 f3 3d f0 e6 20 3e 7e 53 03 bd
       0.08953486 0.1188144 0.15713096 -0.032062046
000150 aa 29 e8 bd 1f d9 06 bd eb 0b 8d 3d d2 e8 55 bc
       -0.11336072 -0.032921907 0.06887039 -0.013055997
000160 75 cb 4e bd f7 2f e2 bd ab 1e ea bd 06 14 c2 bd
       -0.050487 -0.11044305 -0.11431631 -0.094764754
000170 b3 42 41 bd 97 f4 87 3d f8 de 80 3d 31 8c ed bd
       -0.04718275 0.06638449 0.06292528 -0.11599005
000180 14 15 e2 3d d9 cd a0 bd d6 61 69 bd 1a ed 02 bd
       0.110391766 -0.07851762 -0.05697807 -0.0319644
000190 1d 7d 66 bd 14 f4 8f bc ae 07 97 bd 64 63 d3 bd
       -0.05627166 -0.01757244 -0.07374512 -0.10321692
0001a0 04 b8 83 bc a2 e4 f2 3c 8a c7 88 bd a1 1e 43 bc
       -0.016078956 0.029650036 -0.06678684 -0.011909158
0001b0 48 ec df bd ae 27 b6 bb 5b 79 e4 3d 01 f7 ce bd
       -0.10933739 -0.0055589294 0.11155959 -0.10105706
0001c0 0c 05 15 3e 54 a1 df 3c a3 09 07 be 2a 67 54 3d
       0.14552706 0.027298607 -0.1318727 0.051856197
0001d0 4a 31 55 bd b1 c4 48 bd 9b 59 fd 3d 30 d9 93 bd
       -0.05204896 -0.049015705 0.123706065 -0.072191596
0001e0 f3 22 cb 3c 20 64 33 3a fe f7 b9 3d 9d 2d dd 3c
       0.024796939 0.0006843228 0.09080504 0.02699929
0001f0 cf 0c e8 3c 60 ac e7 3a ad 7d 0f bd 04 46 a5 bc
       0.02832642 0.0017675273 -0.035031963 -0.020174988
000200 17 ec 7f bd cf a3 60 3d 85 ef 15 3e 74 31 d4 3d
       -0.062481012 0.05484372 0.1464215 0.10360995
000210 22 ed 97 bd 31 e4 56 3d f8 bd 04 be 63 e5 03 bd
       -0.07418276 0.052463714 -0.12963092 -0.032201182
000220 c9 70 34 bd 3c 6f 62 3d 34 ef 43 bd 67 32 aa 3b
       -0.044052873 0.055281863 -0.047835544 0.0051939967
000230 ba f4 0b bc e6 0f b3 3d 1b f8 01 be 55 f2 08 be
       -0.008542234 0.08743267 -0.12692301 -0.13373692
000240 43 42 79 bd d4 8a b1 3d 31 ca 46 bd 46 f8 55 3d
       -0.060854208 0.086690575 -0.04853267 0.052238725
000250 22 d8 11 bc 46 c8 a6 bb 21 0a d1 bc 22 35 cd bc
       -0.008901628 -0.0050897924 -0.025517525 -0.02504975
000260 0d db 08 ba e7 0d 20 bd 00 ea 99 3a 28 86 f4 3c
       -0.00052206294 -0.03907576 0.0011742711 0.029849127
000270 7e 51 17 be 03 78 ac bd ad e2 1a 3e 2e be f5 bd
       -0.1477718 -0.08421328 0.15125532 -0.119991645
000280 38 fe 0f 3c 35 b3 ba 3d f8 03 11 3d 8a a7 2d 3c
       0.008788638 0.09116212 0.035404176 0.010599026
000290 bc 68 eb bd 08 a6 ad 3d 10 6d c1 bd 90 77 2a bd
       -0.11494586 0.084789336 -0.0944463 -0.04161793
0002a0 a1 48 2f bd 86 26 4e bd 8d 80 75 bc 5a 06 15 3e
       -0.042793874 -0.050329708 -0.014984262 0.14553204
0002b0 dc 82 50 3d cc 84 07 3e fc b3 ed 3d 6a 8a 78 bd
       0.050906047 0.13234252 0.11606595 -0.060678877
0002c0 88 0b ab 3d ae b9 98 bd e8 d3 13 bd 90 89 22 3d
       0.08351809 -0.074572906 -0.03609076 0.03968197
0002d0 88 7b 75 3d d3 da cb 3d 32 b0 61 bd 6b 40 87 3d
       0.05993226 0.09953847 -0.055099674 0.066040836
0002e0 10 4f c8 3d fc fc c3 bd bd 74 b9 3d 52 96 d9 bd
       0.09780705 -0.09569737 0.09055469 -0.106243744
0002f0 b6 cf 9d ba 86 29 80 bb 34 07 8c bd 99 e6 a6 39
       -0.0012040052 -0.0039112 -0.068373114 0.00031833796
000300 6c c8 f6 3d 87 a1 16 bd ed db 86 bd c5 f0 88 bd
       0.12049946 -0.03677514 -0.06584916 -0.06686548
000310 15 c3 08 be 68 af 92 3d dd 5d 60 bd d6 9c ac bc
       -0.13355668 0.07162362 -0.054777015 -0.021070879
000320 e1 a6 07 bd 3c 8b 97 3d f7 12 97 3d 16 a8 9c 3d
       -0.033118133 0.07399604 0.07376664 0.07649247
000330 18 a2 a4 3d 94 9a 00 bd 90 30 07 bd 08 6a 07 3d
       0.080387294 -0.031397417 -0.033005297 0.033060104
000340 d4 29 21 3e 3f c9 26 3d 5f 9a 8f bc 20 d8 06 bd
       0.15738612 0.040719267 -0.017529665 -0.032920957
000350 6a e8 e8 bd 4c 67 39 3d 59 e2 ba bd 23 35 c4 bd
       -0.113724545 0.045264527 -0.09125204 -0.095804475
000360 23 61 5b 3d 06 87 04 be c4 f5 73 bc 72 c8 26 bd
       0.053559434 -0.12942132 -0.014890138 -0.040718503
000370 ea 14 68 3d 69 db 96 bd 4f 8e b6 bd d3 6e 20 3d
       0.05666057 -0.07366068 -0.08913862 0.03916819
000380 a8 83 47 3c 22 3a a3 3d b0 d8 92 bc e5 65 be 3d
       0.012177385 0.07970072 -0.01792559 0.092967786
000390 17 45 03 bd fa db 57 3d 6f 0c 96 bd 41 2b 3e 3d
       -0.03204831 0.05270002 -0.0732659 0.04642797
0003a0 63 7c 43 3d 7b da 68 3b 4c d8 d9 3b 71 03 ef bd
       0.047726046 0.0035530615 0.006648099 -0.11670578
0003b0 06 60 66 3d 4a 68 f6 bd d0 ea 0f 3d ff 0e 24 bd
       0.05624392 -0.1203161 0.035136044 -0.040053364
0003c0 56 5b ce bc 88 e3 bb bb 02 53 14 bc dd c7 a5 3c
       -0.025190037 -0.005733911 -0.009052994 0.020236904
0003d0 b8 22 fe 3c cd f6 e9 bd 65 27 2e 3c 7d fb 13 3d
       0.031022415 -0.11424027 0.01062951 0.03612851
0003e0 3e c1 c7 3c f1 cd 45 bd 9d 44 04 be 0c c5 41 bd
       0.024384137 -0.048292104 -0.12916799 -0.04730706
0003f0 d5 08 87 3d c8 67 3a bd 7c c6 19 3d 04 f0 b6 3d
       0.065934815 -0.04550913 0.037542805 0.08932498

bias f4 [16]
000000 84 44 b2 3d 0c 24 fc bd 37 94 53 3d 90 9e d9 bd
       0.087044746 -0.12311563 0.05165502 -0.106259465
000010 4c 0f d3 3d be e7 2e 3d 4b c9 09 3e 93 65 09 be
       0.10305652 0.042701475 0.13455693 -0.13417654
000020 d6 25 06 be 86 6d bc 3d 23 6f f7 3d 9f c0 aa 3d
       -0.13100371 0.092005774 0.120817445 0.08337521
000030 52 49 b9 3d 2e bd ea bd a2 b9 c9 3d d1 90 03 be
       0.09047188 -0.114618644 0.0984986 -0.12848212

weight f4 [16]
000000 58 fe 88 3f f8 2b 87 3f c4 84 84 3f 14 f5 88 3f
       1.070262 1.0560293 1.0353017 1.0699792
000010 c5 c2 8a 3f ff ec 85 3f cb d7 94 3f d0 72 88 3f
       1.0840689 1.046295 1.1628355 1.0660038
000020 7b 35 8b 3f 75 3a 84 3f 52 25 83 3f eb ea 86 3f
       1.0875696 1.033034 1.0245764 1.0540441
000030 f7 48 96 3f 13 e4 87 3f 3a 31 83 3f 76 10 80 3f
       1.1741017 1.0616478 1.0249398 1.0005023

bias f4 [16]
000000 bc ed 3d bd 3c 0e 1d 3b fe 88 1b 3a 5f 82 d1 bc
       -0.0463693 0.0023964783 0.0005933194 -0.025574861
000010 30 ae 0f bd 61 c3 8a bc bb 58 8e 3c 8e 90 54 bb
       -0.035078228 -0.016938867 0.017376294 -0.0032434794
000020 6d 40 e4 bc ec ce c7 bb 85 c5 0b bd 96 db 47 bc
       -0.027862752 -0.006097665 -0.034123916 -0.012198349
000030 02 24 3f 3d 1c ab 0f bd 69 cc ef bc 6e 90 80 bd
       0.0466652 -0.035075292 -0.029272275 -0.06277548

running_mean f4 [16]
000000 00 00 00 00 00 00 00 00 00 00 00 00 00 00 00 00
       0.0 0.0 0.0 0.0
000010 00 00 00 00 00 00 00 00 00 00 00 00 00 00 00 00
       0.0 0.0 0.0 0.0
000020 00 00 00 00 00 00 00 00 00 00 00 00 00 00 00 00
       0.0 0.0 0.0 0.0
000030 00 00 00 00 00 00 00 00 00 00 00 00 00 00 00 00
       0.0 0.0 0.0 0.0

running_var f4 [16]
000000 00 00 80 3f 00 00 80 3f 00 00 80 3f 00 00 80 3f
       1.0 1.0 1.0 1.0
000010 00 00 80 3f 00 00 80 3f 00 00 80 3f 00 00 80 3f
       1.0 1.0 1.0 1.0
000020 00 00 80 3f 00 00 80 3f 00 00 80 3f 00 00 80 3f
       1.0 1.0 1.0 1.0
000030 00 00 80 3f 00 00 80 3f 00 00 80 3f 00 00 80 3f
       1.0 1.0 1.0 1.0

weight f4 [32, 784]
000000 72 a9 43 3b 22 6f ba bc 50 b1 61 bc 54 41 2e 3c
       0.0029855636 -0.02275807 -0.013775185 0.010635693
000010 42 67 2d 3a c0 31 39 bb 1a a5 0c bd 85 f6 09 bd
       0.0006614813 -0.0028258413 -0.03433714 -0.033682365
000020 97 11 5c 3c c1 00 07 bc 93 54 ba bc 5c 48 0e bc
       0.013431928 -0.008239926 -0.022745406 -0.008684244
000030 aa a9 17 bd 30 c5 0a bd 20 1a b2 3c fd 9d a4 3c
       -0.03702704 -0.03387946 0.021740973 0.020094866
000040 22 a1 64 3b 1b c9 c1 3b 3f e8 36 3d d9 cc ae bb
       0.0034886082 0.005913866 0.04465508 -0.0053344783
000050 20 6a c1 bc 76 89 fc 3b 22 4e 17 3d 3c ec 06 bd
       -0.023610175 0.0077068163 0.036939748 -0.032940134
000060 28 62 ed bc f4 49 e7 3c 61 a5 51 3d b7 12 aa bc
       -0.028977469 0.028233506 0.05118311 -0.020760877
000070 f0 b6 04 3c 10 1e 44 3d dd 69 2d 3d 1b 4c 9e 3c
       0.008100256 0.047880232 0.042337287 0.0193234
000080 72 44 1f 3d 76 59 ba 3c 2d 8e a0 bc 7e e6 46 3b
       0.038883634 0.022747736 -0.019599045 0.0030349786
000090 71 89 ed 3c 3d cd 9e 3d ce 90 10 bd 2c 90 87 3c
       0.028996201 0.0775399 -0.035294347 0.016548239
0000a0 2b fe d2 bc e8 32 20 bd 83 1b 02 3c a8 e8 c3 bc
       -0.025755962 -0.039111048 0.00794113 -0.02391465
0000b0 3a 21 61 3b 9b a8 99 bc 22 01 a4 bc 18 d1 e3 ba
       0.003435208 -0.018757155 -0.020020071 -0.001738104
0000c0 68 4f 50 bc 49 9d 9a 3c 5b 71 25 3b d6 87 dd 3c
       -0.012714244 0.018873828 0.0025244567 0.02704231
0000d0 cb b8 2b 3c 2b b8 0f bc 66 a3 e3 3c 19 c5 b3 3a
       0.01048107 -0.008771936 0.027787875 0.0013715356
0000e0 6a e0 9a 3b fe 26 33 ba 94 95 e9 ba 3f 88 78 bc
       0.0047264593 -0.00068341184 -0.0017821067 -0.015169202
0000f0 c5 16 e4 bc 67 cc fb bc aa 8b fd bb 81 8f ea bc
       -0.027842889 -0.030737115 -0.0077375965 -0.028632881
000100 4c d4 78 bc e6 f1 c0 ba 16 1a d2 bc 1e 07 63 bb
       -0.015187334 -0.0014720529 -0.025647204 -0.0034641693
000110 84 12 84 bc 0e 31 94 bc 68 fc d0 3b 48 72 e2 bc
       -0.01612211 -0.018089797 0.0063777454 -0.027642384
000120 a6 71 dc 3a 5e 91 76 bd 44 e2 93 bc 71 c7 21 3d
       0.0016818538 -0.060197227 -0.018052228 0.039496843
000130 ce 80 33 3d c9 de be 3a 97 ec 33 bd b8 c4 9b b9
       0.04382401 0.0014562245 -0.0439268 -0.0002971047
000140 74 a7 00 3d a0 59 f2 bc 96 23 f8 bc 62 78 83 3c
       0.031409696 -0.029583752 -0.030290406 0.016048614
000150 22 08 e4 ba 69 94 45 bd 24 38 89 3b d0 92 9f 3b
       -0.0017397443 -0.048237238 0.0041876007 0.0048697963
000160 84 fb 0b ba 8c 2c 95 3c d1 ab af 3c 89 b5 6c 3b
       -0.0005339908 0.018209718 0.021444233 0.0036118946
000170 04 91 94 ba be 1f 73 bc 5e 10 bc ba 12 04 d5 3b
       -0.0011334722 -0.014839111 -0.001434814 0.0065007294
000180 27 b2 d2 bc 0e 45 e8 bb db c6 f6 bc 84 67 9f 3c
       -0.025719715 -0.00708831 -0.030124119 0.01945854
000190 8a e3 cb bc 78 11 02 3d 4e 45 07 bc 18 e6 c8 bc
       -0.024888773 0.03175494 -0.00825627 -0.02452378
0001a0 7d 71 69 3c 25 66 70 3b a6 94 09 3d 1e 04 ff 3c
       0.014248249 0.0036681977 0.033589028 0.031129893
0001b0 41 79 a6 bc a0 c0 84 bb 20 df 7d bc 63 46 71 bc
       -0.02032149 -0.004051283 -0.015495092 -0.014726254
0001c0 7c 21 c3 3c f8 6d 03 3d f3 8a b5 bc ac c2 b1 39
       0.023819678 0.032087296 -0.022160983 0.00033905113
0001d0 3d 2d b7 3c da 39 a8 3c f7 aa 0a 3d 1f fa 39 bc
       0.022360438 0.020535398 0.03385445 -0.011351137
0001e0 d8 8a 33 bd a4 93 69 3c b3 d0 6e 3c 5c 48 e0 39
       -0.043833584 0.014256392 0.014576125 0.0004277852
0001f0 72 46 19 bd d0 4b bb bc 05 61 7d bb 09 e4 1b bd
       -0.037420698 -0.022863299 -0.0038662564 -0.03805927
000200 b6 20 86 bc d6 b8 49 bc bf 61 cf bb 86 cb 9f bc
       -0.01637302 -0.012312135 -0.006328791 -0.019506227
000210 86 23 83 3c af 76 b0 bc c8 a3 4f 3d f1 a8 c2 bc
       0.01600815 -0.021540968 0.050693303 -0.023762198
000220 a5 53 01 bd ed 60 e2 bb ec a4 fb 3c 06 93 a6 3b
       -0.03157391 -0.006908527 0.03071829 0.0050834445
000230 7e a2 3c 3c 82 3f 93 bc d4 96 14 3d b6 cb 84 3c
       0.0115133505 -0.017974619 0.036276653 0.016210418
000240 22 db 78 3c 3c 38 bc 3c d9 c2 66 3c 43 af d5 bb
       0.015188964 0.022976033 0.014084541 -0.006521137
000250 02 22 8b bb 77 1a c9 bc 80 35 84 bc 09 82 9e 3c
       -0.0042459974 -0.024548752 -0.016138792 0.019349115
000260 92 6c 80 bc a3 fe a3 3c cd e6 6e bc 14 c5 06 bc
       -0.01567677 0.020018881 -0.014581394 -0.008225698
000270 49 bd 96 3a 44 76 3b bd e9 e4 32 bc bc e5 4f ba
       0.0011500503 -0.045767084 -0.010918834 -0.00079306564
000280 28 c0 d2 bb 22 2a 03 bc 02 d2 fa 3c 31 58 8b 3c
       -0.006431598 -0.008005651 0.030617718 0.017009826
000290 86 a1 1d bd 2d ef 8b 3c c7 a4 38 bb 61 59 16 bd
       -0.03848412 0.017081821 -0.0028174387 -0.036706332
0002a0 4b 24 26 3c 3d 9c 05 3c 05 71 98 bc a3 39 ef bc
       0.010140489 0.008154926 -0.01860858 -0.029202288
0002b0 52 a8 db 3a 7c 5d 29 bb 74 ff 1c bd 5e ac 11 bd
       0.0016758537 -0.0025843075 -0.038329557 -0.035564773
0002c0 de 73 af 3b 30 2a 87 bd 2b 3a 14 bd c6 8e 1f bd
       0.0053543886 -0.065998435 -0.036188286 -0.03895452
0002d0 ac 86 2c bc 9b a5 e4 bc e8 1c d0 bc e2 44 e3 3b
       -0.010530155 -0.027910998 -0.025404409 0.0069357017
0002e0 8b 61 0b bd ea 3b 06 bb 53 33 c1 3c 2d 07 79 bb
       -0.03402857 -0.002048249 0.023584044 -0.0037998662
0002f0 cd be 31 3c cf 10 e7 bc 17 a8 c7 bc 97 cb 02 3d
       0.010848713 -0.028206257 -0.024372144 0.03193244
000300 fa 41 d9 3c 94 68 15 3d 70 db 9e bc ac fe 90 bc
       0.026520718 0.036476687 -0.019391745 -0.017699562
000310 8e f0 34 bb 96 ed 19 bb 2e 64 d1 3c 5f ba 11 bd
       -0.0027609202 -0.002348756 0.025560465 -0.035578128
000320 ca 94 fd 3b 66 3a 3c 3c ab 8d c6 bc 43 73 a1 bc
       0.0077386843 0.011488533 -0.024237474 -0.019708281
000330 c8 dc 7a 3c d3 91 f6 bc b9 88 96 3c 11 97 cd bc
       0.015311427 -0.030098831 0.018375741 -0.025096448
000340 d8 bf c3 3c 6e 4c df bc 54 9c a2 3c 4f 5f f3 bc
       0.02389519 -0.027258124 0.019849934 -0.029708533
000350 c8 f9 26 bd e7 f4 03 bc 9d d2 ce 3c 37 96 ef bc
       -0.040765554 -0.008053995 0.025246913 -0.029246433
000360 b5 a7 1a bc eb af 0b 3d 6a d8 a9 bc b3 07 5a 3b
       -0.009439399 0.034103315 -0.020733077 0.003326875
000370 3c 4b b2 bb 48 f5 ce bc d1 26 1d bd 8d 0a bd 3c
       -0.0054410975 -0.025263444 -0.038367096 0.02307632
000380 1b ee 60 3c 00 53 e3 bc 63 d8 8c 3c 16 2d 37 bc
       0.013728644 -0.027749538 0.017193025 -0.011180183
000390 ed 47 35 bd 20 2a e9 bc 55 71 82 bc 0f d9 0c 3d
       -0.044258047 -0.02846247 -0.015923182 0.03438669
0003a0 c6 f6 25 bd 5f 70 f6 bc 79 88 9a 3b e7 ad 7e 3c
       -0.040518545 -0.03008288 0.004715976 0.015544391
0003b0 ae 44 84 3b cd b0 ed b9 82 51 17 bc 26 e8 9c bc
       0.0040365076 -0.0004533589 -0.009235742 -0.019153666
0003c0 e4 71 27 bc 72 3e 59 bc 9c 9c ff 3c 3c a0 0c bd
       -0.010220025 -0.013259517 0.031202607 -0.0343325
0003d0 a4 cb c8 bc 50 37 e3 bc 50 f4 c6 bb df 0d f2 3c
       -0.024511166 -0.027736336 -0.006071605 0.02954763
0003e0 32 30 1d 3d 94 57 1c bc de 85 d7 3a 3f ad a0 3c
       0.03837604 -0.009542365 0.0016443094 0.01961386
0003f0 49 e6 83 3c 3d 92 f5 3c 98 56 39 3b 80 d9 74 bc
       0.01610102 0.029976958 0.0028280374 -0.014944434

bias f4 [32]
000000 74 75 15 bd 60 e7 b1 b9 62 2a 64 3c 8f 0e 10 3d
       -0.036488965 -0.0003393246 0.0139261205 0.035170134
000010 fe d0 0f 3d 42 2c 1e bd a3 76 0a bd 63 55 f5 bc
       0.03511142 -0.038616426 -0.033804547 -0.029947942
000020 16 fa a3 3c 86 71 58 bc 62 a9 49 bc db 37 47 bc
       0.020016711 -0.01321066 -0.01230845 -0.012159313
000030 cc 99 c8 bb c4 f4 8c 3b 2c 31 a5 bc 08 0c ad 3c
       -0.0061218496 0.0043016393 -0.020165049 0.021123901
000040 f1 4a e2 3c 8e 59 37 3b 65 82 b4 b9 f2 5d d6 3a
       0.027623625 0.0027976963 -0.00034429427 0.0016354902
000050 88 af 7d bc 7e 5a 6a bc c8 36 0a bd c8 43 eb bb
       -0.015483744 -0.014303802 -0.03374365 -0.007179711
000060 ee 85 ca bc 16 39 98 bb f6 29 19 bd de 31 d1 bc
       -0.024722066 -0.004645477 -0.037393533 -0.025536474
000070 79 40 0d 3d 13 9b ca bc ee b8 bb 3c a1 a6 03 bd
       0.034485314 -0.024732148 0.02291533 -0.03214133

weight f4 [10, 32]
000000 b4 36 cc be 53 f7 ab be 59 af 07 be 4f 68 b6 bc
       -0.39885485 -0.3358713 -0.13250484 -0.022266535
000010 57 0c 36 be d2 1e 32 bd 2d 65 ee bd 69 a7 7c be
       -0.17778145 -0.043486424 -0.116403915 -0.24673237
000020 1a a4 3e be f8 57 c0 be ba 6e 11 be b5 94 9b 3e
       -0.18617287 -0.37567115 -0.14202395 0.30386892
000030 4f 89 e5 bd 0b 22 59 b9 48 59 ed be 24 ee 73 3d
       -0.1120783 -0.00020707415 -0.4635718 0.05955328
000040 94 b1 56 be eb 34 8d 3e 8b 04 a2 be a7 3b 6d 3e
       -0.20966178 0.27579436 -0.3164409 0.23167287
000050 56 69 11 3e ec 1f c6 3d 9e 0d 7d be 69 a0 3f be
       0.14200339 0.09674057 -0.24712226 -0.18713535
000060 8a e6 25 3e ca eb f2 3e ee ff de 3c 1c 3c e0 be
       0.16201225 0.47445518 0.027221646 -0.4379586
000070 18 e7 44 3e 6e f7 c3 be cd 4f 02 bd 2c 06 ca be
       0.1922878 -0.3827471 -0.031814385 -0.39457834
000080 79 bd 82 be e5 f0 87 be 42 81 1a be a3 00 06 3d
       -0.2553518 -0.26550975 -0.1508837 0.03271545
000090 6b e1 4b 3e 1b 7a 59 3d 44 c4 81 3b 1c 6d 8e 3c
       0.19910209 0.053094964 0.0039601643 0.017386012
0000a0 52 4a 84 3e d7 8f 87 3e 98 0c a1 3e 52 61 76 3e
       0.25837952 0.2647693 0.3145492 0.24060562
0000b0 b3 f7 14 bd 30 4b f3 3d 31 7d 7f 3e e0 3c d8 3c
       -0.036369037 0.11879575 0.249501 0.026396215
0000c0 b7 3a ae be 9c 65 c7 be a2 64 41 be 5e 77 7b be
       -0.3402917 -0.3894471 -0.18886045 -0.24557254
0000d0 ee f3 3b be cd 9f 80 3d 06 40 87 3e e9 ab a3 be
       -0.1835477 0.062804796 0.26416034 -0.31967095
0000e0 e0 ac de be 2c 83 c4 3d ab 8a b3 3e 39 3f de 3d
       -0.43491268 0.095953315 0.35066733 0.108519025
0000f0 70 d0 d4 bd 89 b4 56 3e 8e 83 f0 bd 26 9a a3 3e
       -0.10391319 0.20967306 -0.11743842 0.31953543
000100 98 68 9f 3d fb 93 d9 bd 87 09 a9 be 82 73 aa bc
       0.077836215 -0.10623928 -0.3301508 -0.020807032
000110 03 82 95 be e6 ad 70 3e e3 dd de 3e b7 d5 bd be
       -0.29200754 0.23503837 0.4352866 -0.37077114
000120 ba 59 42 3e cf 0e a9 bd 9c a6 43 be d9 a8 ed ba
       0.1897954 -0.08254778 -0.19106525 -0.0018131986
000130 43 41 7a be 3c b4 65 be 37 50 17 3e d4 1c 20 3e
       -0.24438958 -0.22432035 0.14776693 0.15635997
000140 9b e4 9b 3e 78 a4 81 3e c9 70 86 be 39 62 cc 3e
       0.3044785 0.25320792 -0.26257923 0.39918688
000150 4b f8 93 be 48 22 6d 3d 72 0b 05 3e 86 07 2a 3e
       -0.2890037 0.05789402 0.12992647 0.16604432
000160 8a aa 1a be 6b 8e 9c be 74 fd 5b 3e 74 a7 a1 bd
       -0.15104118 -0.30577406 0.21483403 -0.07893267
000170 53 2a b8 3e f4 52 88 be ed cc 84 3d 3f 30 47 bd
       0.3596979 -0.26625788 0.06484399 -0.048629995
000180 b6 e1 ce 3e dd 2e 83 bb f4 21 ef 3b e4 4e de be
       0.4040658 -0.0040033893 0.0072977487 -0.43419564
000190 7a d6 25 be 8b 05 4b 3e 06 70 61 3d 8d 52 0c be
       -0.16195098 0.19826333 0.055038475 -0.13703366
0001a0 67 cf 94 bc 92 10 21 be 29 e5 bd 3d ba b1 35 3e
       -0.018165303 -0.15728977 0.092722245 0.17743579
0001b0 a6 db b2 3e 9f d1 ba 3e a8 20 2c 3e ac c4 8f be
       0.34933203 0.36488053 0.16809332 -0.28079736
0001c0 4d 9d ab be 7a 87 c1 be 74 27 84 bd 77 98 88 3e
       -0.33518448 -0.37798673 -0.064528376 0.2667882
0001d0 90 d3 b6 3e eb 96 e1 3e de d2 3d 3e a6 9b 22 be
       0.35708284 0.44060454 0.1853747 -0.15879688
0001e0 08 fc 9c be bc 0d 3b 3d 35 05 b6 bd f4 6a 15 3e
       -0.30661035 0.045667395 -0.08887712 0.1459158
0001f0 34 74 d1 bd 8e 1f 17 3b 2a 59 ac bd 21 25 8d 3e
       -0.10227242 0.002305958 -0.08415444 0.2756739
000200 bd 64 f7 bd 09 51 a4 bd 34 64 b3 3d 01 da 4c 3d
       -0.12079761 -0.08023269 0.087593466 0.050012592
000210 d9 8b 74 be c2 3d 2d bd d1 40 69 be 8a 1e ce bb
       -0.23881473 -0.042295225 -0.22778632 -0.0062902616
000220 fe b3 0f bf 5b 12 41 3e 37 56 87 3e 1a d1 7c be
       -0.5613402 0.18854658 0.26432964 -0.24689141
000230 9d 45 66 3e 16 06 b8 bd 96 42 84 3d 15 51 9b 3e
       0.22487493 -0.08985536 0.06458013 0.30335298
000240 53 66 e5 3d d2 81 db 3e c3 4f 77 3e a5 09 b4 3d
       0.112011574 0.42872483 0.2415152 0.08790902
000250 b2 b5 3c 3d a2 2a 0b 3e 8e 15 12 3e 96 49 93 be
       0.046071716 0.13590482 0.14266035 -0.2876708
000260 ba 94 61 3e 7c ad af be cb 08 d6 be 6b 83 0e 3e
       0.22029391 -0.34312046 -0.41803584 0.1391732
000270 12 35 9c bd 1d 72 a3 3d 10 53 0d 3c 68 a3 1b 3e
       -0.0762731 0.0798075 0.008625761 0.15199053
000280 f4 51 b7 3e 4a 12 26 3d f7 d5 e0 3e 77 81 ba ba
       0.35804713 0.040544786 0.43913242 -0.0014229257
000290 b0 24 fc 3b 1a d0 11 3e 6c e5 1f be 97 2a c3 bc
       0.007694803 0.1423954 -0.15614861 -0.02382402
0002a0 27 f8 04 3e f0 6a 5f 3b 67 01 e3 bd 4c 5a 9a be
       0.12985288 0.003409084 -0.11084252 -0.30147016
0002b0 4c 82 a6 be 72 76 6b 3e e2 75 fb 3d 6b 0c 11 3e
       -0.32521284 0.22994402 0.12278344 0.14164893
0002c0 2b e1 c8 bd 40 b7 2f be 1e e7 9f be aa 6f b8 be
       -0.098085724 -0.17159748 -0.31231016 -0.36022693
0002d0 6f 37 0f be b4 78 6a bd ba d3 42 be e5 bd 2e be
       -0.1398599 -0.057244018 -0.1902608 -0.17064627
0002e0 3e 64 4d 3e dc b3 9b bc 98 6a 30 be 73 05 85 be
       0.2005777 -0.019006662 -0.17228162 -0.2598072
0002f0 f2 f5 36 3e 7c 19 a7 3e 20 91 99 3e 27 ce 8b 3e
       0.17867258 0.3263663 0.29993534 0.2730572
000300 f8 a8 e1 bd b5 c3 db be 2a 16 e4 3d 22 fd be 3d
       -0.11018556 -0.4292275 0.1113704 0.09325625
000310 96 42 f5 3d 2f fe 14 bd 4a 85 82 3d aa 8f 51 be
       0.11975591 -0.03637522 0.06373079 -0.2046496
000320 60 72 63 be ac ee 7f be 3d ec e9 bc ab 13 18 3e
       -0.222116 -0.2499339 -0.02855503 0.14851253
000330 25 f1 b7 be 4e 6c f4 bd 82 cc 8a be 5c 73 80 3e
       -0.35926166 -0.1193472 -0.27109152 0.25088012
000340 2d 55 8b be d0 23 df 3e 80 25 5e be 8e dc 75 be
       -0.2721342 0.4358201 -0.21693993 -0.24009916
000350 b2 75 10 3e 3d 8f 98 bc 6e e2 19 be 36 cb 77 be
       0.14107397 -0.018622989 -0.15027782 -0.24198613
000360 3f 51 11 be 9a 8e 27 3e 13 45 95 bd 6c 63 9f be
       -0.14191149 0.16362992 -0.072885655 -0.3113054
000370 86 0d 40 3d 04 78 6f be 7e 5a 26 be 7a b8 49 be
       0.046887897 -0.23385626 -0.16245458 -0.19699278
000380 38 18 18 3e 48 10 85 3e 74 3c 9b be 5c 4f 85 3d
       0.14852989 0.25988984 -0.3031956 0.06509277
000390 5f 6d e7 bd 30 0d 3f bd 77 3a c4 bd 99 c6 18 3f
       -0.11300158 -0.046643436 -0.09581464 0.59678036
0003a0 76 06 b7 3d 10 63 17 3e 99 c7 a0 be ca af 8e 3d
       0.08936779 0.14783883 -0.3140228 0.06967123
0003b0 a2 01 59 3e e8 fe b2 3e e1 8c 08 3e f1 f7 91 bd
       0.21192029 0.34960103 0.13334991 -0.07127369
0003c0 8f e4 98 3e 12 aa ab be 8e ea 7c 3e 8e d4 6d 3e
       0.29861876 -0.3352819 0.2469885 0.23225614
0003d0 b7 49 8a bd bb a2 e9 be cd 83 a3 bd 29 5a 02 3f
       -0.06752341 -0.45631966 -0.079841234 0.50918823
0003e0 b7 17 7f 3e 0c b0 6d 3d bb da c3 3d f2 7c 66 be
       0.2491139 0.05802922 0.09563204 -0.225086
0003f0 12 cd 9a bd 14 2a 0f 3d 5d 93 d8 bd 82 89 c7 be
       -0.07558645 0.03495224 -0.10574982 -0.38972098

bias f4 [10]
000000 a5 cd 80 3e d1 cf 89 3d 7b 9f 5b 3c 5c 85 b0 bc
       0.25156894 0.06729091 0.013404722 -0.021547966
000010 00 9a fb 3d be 42 5a 3d b4 4b a7 bd 92 8d 0f 3e
       0.122852325 0.053286307 -0.08168736 0.14018849
000020 9e ef 59 3d 66 f2 fb 3d
       0.053207032 0.12302093
